{"format": "graph-model", "generatedBy": "2.1.0", "convertedBy": "TensorFlow.js Converter v1.7.2", "userDefinedMetadata": {"signature": {"outputs": {"Identity:0": {"name": "Identity:0"}}}}, "modelTopology": {"node": [{"name": "model_transfer/ImgOut/mul/x", "op": "Const", "attr": {"value": {"tensor": {"dtype": "DT_FLOAT", "tensorShape": {}}}, "dtype": {"type": "DT_FLOAT"}}}, {"name": "model_transfer/dense_30/MatMul/ReadVariableOp", "op": "Const", "attr": {"value": {"tensor": {"dtype": "DT_FLOAT", "tensorShape": {"dim": [{"size": "100"}, {"size": "32"}]}}}, "dtype": {"type": "DT_FLOAT"}}}, {"name": "model_transfer/dense_30/BiasAdd/ReadVariableOp", "op": "Const", "attr": {"value": {"tensor": {"dtype": "DT_FLOAT", "tensorShape": {"dim": [{"size": "32"}]}}}, "dtype": {"type": "DT_FLOAT"}}}, {"name": "model_transfer/dense_29/MatMul/ReadVariableOp", "op": "Const", "attr": {"value": {"tensor": {"dtype": "DT_FLOAT", "tensorShape": {"dim": [{"size": "100"}, {"size": "32"}]}}}, "dtype": {"type": "DT_FLOAT"}}}, {"name": "model_transfer/dense_29/BiasAdd/ReadVariableOp", "op": "Const", "attr": {"dtype": {"type": "DT_FLOAT"}, "value": {"tensor": {"dtype": "DT_FLOAT", "tensorShape": {"dim": [{"size": "32"}]}}}}}, {"name": "model_transfer/dense_28/MatMul/ReadVariableOp", "op": "Const", "attr": {"value": {"tensor": {"dtype": "DT_FLOAT", "tensorShape": {"dim": [{"size": "100"}, {"size": "64"}]}}}, "dtype": {"type": "DT_FLOAT"}}}, {"name": "model_transfer/dense_28/BiasAdd/ReadVariableOp", "op": "Const", "attr": {"value": {"tensor": {"dtype": "DT_FLOAT", "tensorShape": {"dim": [{"size": "64"}]}}}, "dtype": {"type": "DT_FLOAT"}}}, {"name": "model_transfer/dense_27/MatMul/ReadVariableOp", "op": "Const", "attr": {"value": {"tensor": {"dtype": "DT_FLOAT", "tensorShape": {"dim": [{"size": "100"}, {"size": "64"}]}}}, "dtype": {"type": "DT_FLOAT"}}}, {"name": "model_transfer/dense_27/BiasAdd/ReadVariableOp", "op": "Const", "attr": {"dtype": {"type": "DT_FLOAT"}, "value": {"tensor": {"dtype": "DT_FLOAT", "tensorShape": {"dim": [{"size": "64"}]}}}}}, {"name": "model_transfer/up_sampling2d_1/Const", "op": "Const", "attr": {"value": {"tensor": {"dtype": "DT_INT32", "tensorShape": {"dim": [{"size": "2"}]}}}, "dtype": {"type": "DT_INT32"}}}, {"name": "model_transfer/dense_26/MatMul/ReadVariableOp", "op": "Const", "attr": {"value": {"tensor": {"dtype": "DT_FLOAT", "tensorShape": {"dim": [{"size": "100"}, {"size": "128"}]}}}, "dtype": {"type": "DT_FLOAT"}}}, {"name": "model_transfer/dense_26/BiasAdd/ReadVariableOp", "op": "Const", "attr": {"value": {"tensor": {"dtype": "DT_FLOAT", "tensorShape": {"dim": [{"size": "128"}]}}}, "dtype": {"type": "DT_FLOAT"}}}, {"name": "model_transfer/dense_25/MatMul/ReadVariableOp", "op": "Const", "attr": {"value": {"tensor": {"dtype": "DT_FLOAT", "tensorShape": {"dim": [{"size": "100"}, {"size": "128"}]}}}, "dtype": {"type": "DT_FLOAT"}}}, {"name": "model_transfer/dense_25/BiasAdd/ReadVariableOp", "op": "Const", "attr": {"value": {"tensor": {"dtype": "DT_FLOAT", "tensorShape": {"dim": [{"size": "128"}]}}}, "dtype": {"type": "DT_FLOAT"}}}, {"name": "model_transfer/dense_24/MatMul/ReadVariableOp", "op": "Const", "attr": {"value": {"tensor": {"dtype": "DT_FLOAT", "tensorShape": {"dim": [{"size": "100"}, {"size": "128"}]}}}, "dtype": {"type": "DT_FLOAT"}}}, {"name": "model_transfer/dense_24/BiasAdd/ReadVariableOp", "op": "Const", "attr": {"value": {"tensor": {"dtype": "DT_FLOAT", "tensorShape": {"dim": [{"size": "128"}]}}}, "dtype": {"type": "DT_FLOAT"}}}, {"name": "model_transfer/dense_23/MatMul/ReadVariableOp", "op": "Const", "attr": {"value": {"tensor": {"dtype": "DT_FLOAT", "tensorShape": {"dim": [{"size": "100"}, {"size": "128"}]}}}, "dtype": {"type": "DT_FLOAT"}}}, {"name": "model_transfer/dense_23/BiasAdd/ReadVariableOp", "op": "Const", "attr": {"value": {"tensor": {"dtype": "DT_FLOAT", "tensorShape": {"dim": [{"size": "128"}]}}}, "dtype": {"type": "DT_FLOAT"}}}, {"name": "model_transfer/dense_22/MatMul/ReadVariableOp", "op": "Const", "attr": {"value": {"tensor": {"dtype": "DT_FLOAT", "tensorShape": {"dim": [{"size": "100"}, {"size": "128"}]}}}, "dtype": {"type": "DT_FLOAT"}}}, {"name": "model_transfer/dense_22/BiasAdd/ReadVariableOp", "op": "Const", "attr": {"value": {"tensor": {"dtype": "DT_FLOAT", "tensorShape": {"dim": [{"size": "128"}]}}}, "dtype": {"type": "DT_FLOAT"}}}, {"name": "model_transfer/dense_21/MatMul/ReadVariableOp", "op": "Const", "attr": {"value": {"tensor": {"dtype": "DT_FLOAT", "tensorShape": {"dim": [{"size": "100"}, {"size": "128"}]}}}, "dtype": {"type": "DT_FLOAT"}}}, {"name": "model_transfer/dense_21/BiasAdd/ReadVariableOp", "op": "Const", "attr": {"value": {"tensor": {"dtype": "DT_FLOAT", "tensorShape": {"dim": [{"size": "128"}]}}}, "dtype": {"type": "DT_FLOAT"}}}, {"name": "model_transfer/dense_20/MatMul/ReadVariableOp", "op": "Const", "attr": {"value": {"tensor": {"dtype": "DT_FLOAT", "tensorShape": {"dim": [{"size": "100"}, {"size": "128"}]}}}, "dtype": {"type": "DT_FLOAT"}}}, {"name": "model_transfer/dense_20/BiasAdd/ReadVariableOp", "op": "Const", "attr": {"value": {"tensor": {"dtype": "DT_FLOAT", "tensorShape": {"dim": [{"size": "128"}]}}}, "dtype": {"type": "DT_FLOAT"}}}, {"name": "model_transfer/dense_19/MatMul/ReadVariableOp", "op": "Const", "attr": {"value": {"tensor": {"dtype": "DT_FLOAT", "tensorShape": {"dim": [{"size": "100"}, {"size": "128"}]}}}, "dtype": {"type": "DT_FLOAT"}}}, {"name": "model_transfer/dense_19/BiasAdd/ReadVariableOp", "op": "Const", "attr": {"value": {"tensor": {"dtype": "DT_FLOAT", "tensorShape": {"dim": [{"size": "128"}]}}}, "dtype": {"type": "DT_FLOAT"}}}, {"name": "model_transfer/dense_18/MatMul/ReadVariableOp", "op": "Const", "attr": {"dtype": {"type": "DT_FLOAT"}, "value": {"tensor": {"dtype": "DT_FLOAT", "tensorShape": {"dim": [{"size": "100"}, {"size": "128"}]}}}}}, {"name": "model_transfer/dense_18/BiasAdd/ReadVariableOp", "op": "Const", "attr": {"value": {"tensor": {"dtype": "DT_FLOAT", "tensorShape": {"dim": [{"size": "128"}]}}}, "dtype": {"type": "DT_FLOAT"}}}, {"name": "model_transfer/dense_17/MatMul/ReadVariableOp", "op": "Const", "attr": {"value": {"tensor": {"dtype": "DT_FLOAT", "tensorShape": {"dim": [{"size": "100"}, {"size": "128"}]}}}, "dtype": {"type": "DT_FLOAT"}}}, {"name": "model_transfer/dense_17/BiasAdd/ReadVariableOp", "op": "Const", "attr": {"value": {"tensor": {"dtype": "DT_FLOAT", "tensorShape": {"dim": [{"size": "128"}]}}}, "dtype": {"type": "DT_FLOAT"}}}, {"name": "model_transfer/dense_16/MatMul/ReadVariableOp", "op": "Const", "attr": {"value": {"tensor": {"dtype": "DT_FLOAT", "tensorShape": {"dim": [{"size": "100"}, {"size": "128"}]}}}, "dtype": {"type": "DT_FLOAT"}}}, {"name": "model_transfer/dense_16/BiasAdd/ReadVariableOp", "op": "Const", "attr": {"value": {"tensor": {"dtype": "DT_FLOAT", "tensorShape": {"dim": [{"size": "128"}]}}}, "dtype": {"type": "DT_FLOAT"}}}, {"name": "model_transfer/dense_15/MatMul/ReadVariableOp", "op": "Const", "attr": {"value": {"tensor": {"dtype": "DT_FLOAT", "tensorShape": {"dim": [{"size": "100"}, {"size": "128"}]}}}, "dtype": {"type": "DT_FLOAT"}}}, {"name": "model_transfer/dense_15/BiasAdd/ReadVariableOp", "op": "Const", "attr": {"value": {"tensor": {"dtype": "DT_FLOAT", "tensorShape": {"dim": [{"size": "128"}]}}}, "dtype": {"type": "DT_FLOAT"}}}, {"name": "model_transfer/dense_14/MatMul/ReadVariableOp", "op": "Const", "attr": {"value": {"tensor": {"dtype": "DT_FLOAT", "tensorShape": {"dim": [{"size": "100"}, {"size": "128"}]}}}, "dtype": {"type": "DT_FLOAT"}}}, {"name": "model_transfer/dense_14/BiasAdd/ReadVariableOp", "op": "Const", "attr": {"dtype": {"type": "DT_FLOAT"}, "value": {"tensor": {"dtype": "DT_FLOAT", "tensorShape": {"dim": [{"size": "128"}]}}}}}, {"name": "model_transfer/dense_13/MatMul/ReadVariableOp", "op": "Const", "attr": {"value": {"tensor": {"dtype": "DT_FLOAT", "tensorShape": {"dim": [{"size": "100"}, {"size": "128"}]}}}, "dtype": {"type": "DT_FLOAT"}}}, {"name": "model_transfer/dense_13/BiasAdd/ReadVariableOp", "op": "Const", "attr": {"value": {"tensor": {"dtype": "DT_FLOAT", "tensorShape": {"dim": [{"size": "128"}]}}}, "dtype": {"type": "DT_FLOAT"}}}, {"name": "model_transfer/dense_12/MatMul/ReadVariableOp", "op": "Const", "attr": {"dtype": {"type": "DT_FLOAT"}, "value": {"tensor": {"dtype": "DT_FLOAT", "tensorShape": {"dim": [{"size": "100"}, {"size": "128"}]}}}}}, {"name": "model_transfer/dense_12/BiasAdd/ReadVariableOp", "op": "Const", "attr": {"dtype": {"type": "DT_FLOAT"}, "value": {"tensor": {"dtype": "DT_FLOAT", "tensorShape": {"dim": [{"size": "128"}]}}}}}, {"name": "model_transfer/dense_11/MatMul/ReadVariableOp", "op": "Const", "attr": {"value": {"tensor": {"dtype": "DT_FLOAT", "tensorShape": {"dim": [{"size": "100"}, {"size": "128"}]}}}, "dtype": {"type": "DT_FLOAT"}}}, {"name": "model_transfer/dense_11/BiasAdd/ReadVariableOp", "op": "Const", "attr": {"value": {"tensor": {"dtype": "DT_FLOAT", "tensorShape": {"dim": [{"size": "128"}]}}}, "dtype": {"type": "DT_FLOAT"}}}, {"name": "model_transfer/dense_10/MatMul/ReadVariableOp", "op": "Const", "attr": {"value": {"tensor": {"dtype": "DT_FLOAT", "tensorShape": {"dim": [{"size": "100"}, {"size": "128"}]}}}, "dtype": {"type": "DT_FLOAT"}}}, {"name": "model_transfer/dense_10/BiasAdd/ReadVariableOp", "op": "Const", "attr": {"value": {"tensor": {"dtype": "DT_FLOAT", "tensorShape": {"dim": [{"size": "128"}]}}}, "dtype": {"type": "DT_FLOAT"}}}, {"name": "model_transfer/dense_9/MatMul/ReadVariableOp", "op": "Const", "attr": {"value": {"tensor": {"dtype": "DT_FLOAT", "tensorShape": {"dim": [{"size": "100"}, {"size": "128"}]}}}, "dtype": {"type": "DT_FLOAT"}}}, {"name": "model_transfer/dense_9/BiasAdd/ReadVariableOp", "op": "Const", "attr": {"value": {"tensor": {"dtype": "DT_FLOAT", "tensorShape": {"dim": [{"size": "128"}]}}}, "dtype": {"type": "DT_FLOAT"}}}, {"name": "model_transfer/dense_8/MatMul/ReadVariableOp", "op": "Const", "attr": {"value": {"tensor": {"dtype": "DT_FLOAT", "tensorShape": {"dim": [{"size": "100"}, {"size": "128"}]}}}, "dtype": {"type": "DT_FLOAT"}}}, {"name": "model_transfer/dense_8/BiasAdd/ReadVariableOp", "op": "Const", "attr": {"value": {"tensor": {"dtype": "DT_FLOAT", "tensorShape": {"dim": [{"size": "128"}]}}}, "dtype": {"type": "DT_FLOAT"}}}, {"name": "model_transfer/dense_7/MatMul/ReadVariableOp", "op": "Const", "attr": {"value": {"tensor": {"dtype": "DT_FLOAT", "tensorShape": {"dim": [{"size": "100"}, {"size": "128"}]}}}, "dtype": {"type": "DT_FLOAT"}}}, {"name": "model_transfer/dense_7/BiasAdd/ReadVariableOp", "op": "Const", "attr": {"value": {"tensor": {"dtype": "DT_FLOAT", "tensorShape": {"dim": [{"size": "128"}]}}}, "dtype": {"type": "DT_FLOAT"}}}, {"name": "model_transfer/dense_6/MatMul/ReadVariableOp", "op": "Const", "attr": {"value": {"tensor": {"dtype": "DT_FLOAT", "tensorShape": {"dim": [{"size": "100"}, {"size": "128"}]}}}, "dtype": {"type": "DT_FLOAT"}}}, {"name": "model_transfer/dense_6/BiasAdd/ReadVariableOp", "op": "Const", "attr": {"value": {"tensor": {"dtype": "DT_FLOAT", "tensorShape": {"dim": [{"size": "128"}]}}}, "dtype": {"type": "DT_FLOAT"}}}, {"name": "model_transfer/dense_5/MatMul/ReadVariableOp", "op": "Const", "attr": {"dtype": {"type": "DT_FLOAT"}, "value": {"tensor": {"dtype": "DT_FLOAT", "tensorShape": {"dim": [{"size": "100"}, {"size": "128"}]}}}}}, {"name": "model_transfer/dense_5/BiasAdd/ReadVariableOp", "op": "Const", "attr": {"dtype": {"type": "DT_FLOAT"}, "value": {"tensor": {"dtype": "DT_FLOAT", "tensorShape": {"dim": [{"size": "128"}]}}}}}, {"name": "model_transfer/instance_norm_with_scaling_inputs_3/Reshape/shape", "op": "Const", "attr": {"value": {"tensor": {"dtype": "DT_INT32", "tensorShape": {"dim": [{"size": "4"}]}}}, "dtype": {"type": "DT_INT32"}}}, {"name": "model_transfer/dense_4/MatMul/ReadVariableOp", "op": "Const", "attr": {"value": {"tensor": {"dtype": "DT_FLOAT", "tensorShape": {"dim": [{"size": "100"}, {"size": "64"}]}}}, "dtype": {"type": "DT_FLOAT"}}}, {"name": "model_transfer/dense_4/BiasAdd/ReadVariableOp", "op": "Const", "attr": {"value": {"tensor": {"dtype": "DT_FLOAT", "tensorShape": {"dim": [{"size": "64"}]}}}, "dtype": {"type": "DT_FLOAT"}}}, {"name": "model_transfer/dense_3/MatMul/ReadVariableOp", "op": "Const", "attr": {"value": {"tensor": {"dtype": "DT_FLOAT", "tensorShape": {"dim": [{"size": "100"}, {"size": "64"}]}}}, "dtype": {"type": "DT_FLOAT"}}}, {"name": "model_transfer/dense_3/BiasAdd/ReadVariableOp", "op": "Const", "attr": {"value": {"tensor": {"dtype": "DT_FLOAT", "tensorShape": {"dim": [{"size": "64"}]}}}, "dtype": {"type": "DT_FLOAT"}}}, {"name": "model_transfer/instance_norm_with_scaling_inputs_2/Reshape/shape", "op": "Const", "attr": {"value": {"tensor": {"dtype": "DT_INT32", "tensorShape": {"dim": [{"size": "4"}]}}}, "dtype": {"type": "DT_INT32"}}}, {"name": "model_transfer/dense_2/MatMul/ReadVariableOp", "op": "Const", "attr": {"value": {"tensor": {"dtype": "DT_FLOAT", "tensorShape": {"dim": [{"size": "100"}, {"size": "32"}]}}}, "dtype": {"type": "DT_FLOAT"}}}, {"name": "model_transfer/dense_2/BiasAdd/ReadVariableOp", "op": "Const", "attr": {"value": {"tensor": {"dtype": "DT_FLOAT", "tensorShape": {"dim": [{"size": "32"}]}}}, "dtype": {"type": "DT_FLOAT"}}}, {"name": "model_transfer/dense_1/MatMul/ReadVariableOp", "op": "Const", "attr": {"value": {"tensor": {"dtype": "DT_FLOAT", "tensorShape": {"dim": [{"size": "100"}, {"size": "32"}]}}}, "dtype": {"type": "DT_FLOAT"}}}, {"name": "model_transfer/dense_1/BiasAdd/ReadVariableOp", "op": "Const", "attr": {"dtype": {"type": "DT_FLOAT"}, "value": {"tensor": {"dtype": "DT_FLOAT", "tensorShape": {"dim": [{"size": "32"}]}}}}}, {"name": "model_transfer/instance_norm_with_scaling_inputs_1/Reshape/shape", "op": "Const", "attr": {"value": {"tensor": {"dtype": "DT_INT32", "tensorShape": {"dim": [{"size": "4"}]}}}, "dtype": {"type": "DT_INT32"}}}, {"name": "model_transfer/instance_norm_with_scaling_inputs_1/add/y", "op": "Const", "attr": {"value": {"tensor": {"dtype": "DT_FLOAT", "tensorShape": {}}}, "dtype": {"type": "DT_FLOAT"}}}, {"name": "model_transfer/separable_conv2d_1/separable_conv2d/ReadVariableOp", "op": "Const", "attr": {"value": {"tensor": {"dtype": "DT_FLOAT", "tensorShape": {"dim": [{"size": "9"}, {"size": "9"}, {"size": "3"}, {"size": "1"}]}}}, "dtype": {"type": "DT_FLOAT"}}}, {"name": "model_transfer/separable_conv2d_1/separable_conv2d/ReadVariableOp_1", "op": "Const", "attr": {"value": {"tensor": {"dtype": "DT_FLOAT", "tensorShape": {"dim": [{"size": "1"}, {"size": "1"}, {"size": "3"}, {"size": "32"}]}}}, "dtype": {"type": "DT_FLOAT"}}}, {"name": "model_transfer/separable_conv2d_2/separable_conv2d/ReadVariableOp", "op": "Const", "attr": {"value": {"tensor": {"dtype": "DT_FLOAT", "tensorShape": {"dim": [{"size": "3"}, {"size": "3"}, {"size": "32"}, {"size": "1"}]}}}, "dtype": {"type": "DT_FLOAT"}}}, {"name": "model_transfer/separable_conv2d_2/separable_conv2d/ReadVariableOp_1", "op": "Const", "attr": {"value": {"tensor": {"dtype": "DT_FLOAT", "tensorShape": {"dim": [{"size": "1"}, {"size": "1"}, {"size": "32"}, {"size": "64"}]}}}, "dtype": {"type": "DT_FLOAT"}}}, {"name": "model_transfer/separable_conv2d_3/separable_conv2d/ReadVariableOp", "op": "Const", "attr": {"value": {"tensor": {"dtype": "DT_FLOAT", "tensorShape": {"dim": [{"size": "3"}, {"size": "3"}, {"size": "64"}, {"size": "1"}]}}}, "dtype": {"type": "DT_FLOAT"}}}, {"name": "model_transfer/separable_conv2d_3/separable_conv2d/ReadVariableOp_1", "op": "Const", "attr": {"value": {"tensor": {"dtype": "DT_FLOAT", "tensorShape": {"dim": [{"size": "1"}, {"size": "1"}, {"size": "64"}, {"size": "128"}]}}}, "dtype": {"type": "DT_FLOAT"}}}, {"name": "model_transfer/separable_conv2d_4/separable_conv2d/ReadVariableOp", "op": "Const", "attr": {"value": {"tensor": {"dtype": "DT_FLOAT", "tensorShape": {"dim": [{"size": "3"}, {"size": "3"}, {"size": "128"}, {"size": "1"}]}}}, "dtype": {"type": "DT_FLOAT"}}}, {"name": "model_transfer/separable_conv2d_4/separable_conv2d/ReadVariableOp_1", "op": "Const", "attr": {"value": {"tensor": {"dtype": "DT_FLOAT", "tensorShape": {"dim": [{"size": "1"}, {"size": "1"}, {"size": "128"}, {"size": "128"}]}}}, "dtype": {"type": "DT_FLOAT"}}}, {"name": "model_transfer/separable_conv2d_5/separable_conv2d/ReadVariableOp", "op": "Const", "attr": {"value": {"tensor": {"dtype": "DT_FLOAT", "tensorShape": {"dim": [{"size": "3"}, {"size": "3"}, {"size": "128"}, {"size": "1"}]}}}, "dtype": {"type": "DT_FLOAT"}}}, {"name": "model_transfer/separable_conv2d_5/separable_conv2d/ReadVariableOp_1", "op": "Const", "attr": {"value": {"tensor": {"dtype": "DT_FLOAT", "tensorShape": {"dim": [{"size": "1"}, {"size": "1"}, {"size": "128"}, {"size": "128"}]}}}, "dtype": {"type": "DT_FLOAT"}}}, {"name": "model_transfer/separable_conv2d_6/separable_conv2d/ReadVariableOp", "op": "Const", "attr": {"value": {"tensor": {"dtype": "DT_FLOAT", "tensorShape": {"dim": [{"size": "3"}, {"size": "3"}, {"size": "128"}, {"size": "1"}]}}}, "dtype": {"type": "DT_FLOAT"}}}, {"name": "model_transfer/separable_conv2d_6/separable_conv2d/ReadVariableOp_1", "op": "Const", "attr": {"dtype": {"type": "DT_FLOAT"}, "value": {"tensor": {"dtype": "DT_FLOAT", "tensorShape": {"dim": [{"size": "1"}, {"size": "1"}, {"size": "128"}, {"size": "128"}]}}}}}, {"name": "model_transfer/separable_conv2d_7/separable_conv2d/ReadVariableOp", "op": "Const", "attr": {"value": {"tensor": {"dtype": "DT_FLOAT", "tensorShape": {"dim": [{"size": "3"}, {"size": "3"}, {"size": "128"}, {"size": "1"}]}}}, "dtype": {"type": "DT_FLOAT"}}}, {"name": "model_transfer/separable_conv2d_7/separable_conv2d/ReadVariableOp_1", "op": "Const", "attr": {"value": {"tensor": {"dtype": "DT_FLOAT", "tensorShape": {"dim": [{"size": "1"}, {"size": "1"}, {"size": "128"}, {"size": "128"}]}}}, "dtype": {"type": "DT_FLOAT"}}}, {"name": "model_transfer/separable_conv2d_8/separable_conv2d/ReadVariableOp", "op": "Const", "attr": {"value": {"tensor": {"dtype": "DT_FLOAT", "tensorShape": {"dim": [{"size": "3"}, {"size": "3"}, {"size": "128"}, {"size": "1"}]}}}, "dtype": {"type": "DT_FLOAT"}}}, {"name": "model_transfer/separable_conv2d_8/separable_conv2d/ReadVariableOp_1", "op": "Const", "attr": {"value": {"tensor": {"dtype": "DT_FLOAT", "tensorShape": {"dim": [{"size": "1"}, {"size": "1"}, {"size": "128"}, {"size": "128"}]}}}, "dtype": {"type": "DT_FLOAT"}}}, {"name": "model_transfer/separable_conv2d_9/separable_conv2d/ReadVariableOp", "op": "Const", "attr": {"value": {"tensor": {"dtype": "DT_FLOAT", "tensorShape": {"dim": [{"size": "3"}, {"size": "3"}, {"size": "128"}, {"size": "1"}]}}}, "dtype": {"type": "DT_FLOAT"}}}, {"name": "model_transfer/separable_conv2d_9/separable_conv2d/ReadVariableOp_1", "op": "Const", "attr": {"value": {"tensor": {"dtype": "DT_FLOAT", "tensorShape": {"dim": [{"size": "1"}, {"size": "1"}, {"size": "128"}, {"size": "128"}]}}}, "dtype": {"type": "DT_FLOAT"}}}, {"name": "model_transfer/separable_conv2d_10/separable_conv2d/ReadVariableOp", "op": "Const", "attr": {"value": {"tensor": {"dtype": "DT_FLOAT", "tensorShape": {"dim": [{"size": "3"}, {"size": "3"}, {"size": "128"}, {"size": "1"}]}}}, "dtype": {"type": "DT_FLOAT"}}}, {"name": "model_transfer/separable_conv2d_10/separable_conv2d/ReadVariableOp_1", "op": "Const", "attr": {"value": {"tensor": {"dtype": "DT_FLOAT", "tensorShape": {"dim": [{"size": "1"}, {"size": "1"}, {"size": "128"}, {"size": "128"}]}}}, "dtype": {"type": "DT_FLOAT"}}}, {"name": "model_transfer/separable_conv2d_11/separable_conv2d/ReadVariableOp", "op": "Const", "attr": {"value": {"tensor": {"dtype": "DT_FLOAT", "tensorShape": {"dim": [{"size": "3"}, {"size": "3"}, {"size": "128"}, {"size": "1"}]}}}, "dtype": {"type": "DT_FLOAT"}}}, {"name": "model_transfer/separable_conv2d_11/separable_conv2d/ReadVariableOp_1", "op": "Const", "attr": {"value": {"tensor": {"dtype": "DT_FLOAT", "tensorShape": {"dim": [{"size": "1"}, {"size": "1"}, {"size": "128"}, {"size": "128"}]}}}, "dtype": {"type": "DT_FLOAT"}}}, {"name": "model_transfer/separable_conv2d_12/separable_conv2d/ReadVariableOp", "op": "Const", "attr": {"value": {"tensor": {"dtype": "DT_FLOAT", "tensorShape": {"dim": [{"size": "3"}, {"size": "3"}, {"size": "128"}, {"size": "1"}]}}}, "dtype": {"type": "DT_FLOAT"}}}, {"name": "model_transfer/separable_conv2d_12/separable_conv2d/ReadVariableOp_1", "op": "Const", "attr": {"value": {"tensor": {"dtype": "DT_FLOAT", "tensorShape": {"dim": [{"size": "1"}, {"size": "1"}, {"size": "128"}, {"size": "128"}]}}}, "dtype": {"type": "DT_FLOAT"}}}, {"name": "model_transfer/separable_conv2d_13/separable_conv2d/ReadVariableOp", "op": "Const", "attr": {"dtype": {"type": "DT_FLOAT"}, "value": {"tensor": {"dtype": "DT_FLOAT", "tensorShape": {"dim": [{"size": "3"}, {"size": "3"}, {"size": "128"}, {"size": "1"}]}}}}}, {"name": "model_transfer/separable_conv2d_13/separable_conv2d/ReadVariableOp_1", "op": "Const", "attr": {"value": {"tensor": {"dtype": "DT_FLOAT", "tensorShape": {"dim": [{"size": "1"}, {"size": "1"}, {"size": "128"}, {"size": "128"}]}}}, "dtype": {"type": "DT_FLOAT"}}}, {"name": "model_transfer/separable_conv2d_14/separable_conv2d/ReadVariableOp", "op": "Const", "attr": {"value": {"tensor": {"dtype": "DT_FLOAT", "tensorShape": {"dim": [{"size": "3"}, {"size": "3"}, {"size": "128"}, {"size": "1"}]}}}, "dtype": {"type": "DT_FLOAT"}}}, {"name": "model_transfer/separable_conv2d_14/separable_conv2d/ReadVariableOp_1", "op": "Const", "attr": {"dtype": {"type": "DT_FLOAT"}, "value": {"tensor": {"dtype": "DT_FLOAT", "tensorShape": {"dim": [{"size": "1"}, {"size": "1"}, {"size": "128"}, {"size": "64"}]}}}}}, {"name": "model_transfer/up_sampling2d_1/strided_slice/stack_1", "op": "Const", "attr": {"value": {"tensor": {"dtype": "DT_INT32", "tensorShape": {"dim": [{"size": "1"}]}}}, "dtype": {"type": "DT_INT32"}}}, {"name": "model_transfer/up_sampling2d_1/strided_slice/stack", "op": "Const", "attr": {"value": {"tensor": {"dtype": "DT_INT32", "tensorShape": {"dim": [{"size": "1"}]}}}, "dtype": {"type": "DT_INT32"}}}, {"name": "model_transfer/separable_conv2d_15/separable_conv2d/ReadVariableOp", "op": "Const", "attr": {"value": {"tensor": {"dtype": "DT_FLOAT", "tensorShape": {"dim": [{"size": "3"}, {"size": "3"}, {"size": "64"}, {"size": "1"}]}}}, "dtype": {"type": "DT_FLOAT"}}}, {"name": "model_transfer/separable_conv2d_15/separable_conv2d/ReadVariableOp_1", "op": "Const", "attr": {"value": {"tensor": {"dtype": "DT_FLOAT", "tensorShape": {"dim": [{"size": "1"}, {"size": "1"}, {"size": "64"}, {"size": "32"}]}}}, "dtype": {"type": "DT_FLOAT"}}}, {"name": "model_transfer/instance_norm_with_scaling_inputs_15/Mean/reduction_indices", "op": "Const", "attr": {"value": {"tensor": {"dtype": "DT_INT32", "tensorShape": {"dim": [{"size": "2"}]}}}, "dtype": {"type": "DT_INT32"}}}, {"name": "model_transfer/conv2d_1/Conv2D/ReadVariableOp", "op": "Const", "attr": {"value": {"tensor": {"dtype": "DT_FLOAT", "tensorShape": {"dim": [{"size": "9"}, {"size": "9"}, {"size": "32"}, {"size": "3"}]}}}, "dtype": {"type": "DT_FLOAT"}}}, {"name": "model_transfer/conv2d_1/BiasAdd/ReadVariableOp", "op": "Const", "attr": {"value": {"tensor": {"dtype": "DT_FLOAT", "tensorShape": {"dim": [{"size": "3"}]}}}, "dtype": {"type": "DT_FLOAT"}}}, {"name": "Placeholder", "op": "Placeholder", "attr": {"shape": {"shape": {"dim": [{"size": "-1"}, {"size": "-1"}, {"size": "-1"}, {"size": "3"}]}}, "dtype": {"type": "DT_FLOAT"}}}, {"name": "Placeholder_1", "op": "Placeholder", "attr": {"dtype": {"type": "DT_FLOAT"}, "shape": {"shape": {"dim": [{"size": "-1"}, {"size": "100"}]}}}}, {"name": "model_transfer/separable_conv2d_1/separable_conv2d/depthwise", "op": "DepthwiseConv2dNative", "input": ["Placeholder", "model_transfer/separable_conv2d_1/separable_conv2d/ReadVariableOp"], "attr": {"strides": {"list": {"i": ["1", "1", "1", "1"]}}, "data_format": {"s": "TkhXQw=="}, "padding": {"s": "U0FNRQ=="}, "dilations": {"list": {"i": ["1", "1", "1", "1"]}}, "T": {"type": "DT_FLOAT"}}}, {"name": "model_transfer/dense_30/BiasAdd", "op": "_FusedMatMul", "input": ["Placeholder_1", "model_transfer/dense_30/MatMul/ReadVariableOp", "model_transfer/dense_30/BiasAdd/ReadVariableOp"], "device": "/device:CPU:0", "attr": {"fused_ops": {"list": {"s": ["Qmlhc0FkZA=="]}}, "transpose_a": {"b": false}, "transpose_b": {"b": false}, "T": {"type": "DT_FLOAT"}, "num_args": {"i": "1"}, "epsilon": {"f": 0.0}}}, {"name": "model_transfer/dense_29/BiasAdd", "op": "_FusedMatMul", "input": ["Placeholder_1", "model_transfer/dense_29/MatMul/ReadVariableOp", "model_transfer/dense_29/BiasAdd/ReadVariableOp"], "device": "/device:CPU:0", "attr": {"T": {"type": "DT_FLOAT"}, "num_args": {"i": "1"}, "epsilon": {"f": 0.0}, "fused_ops": {"list": {"s": ["Qmlhc0FkZA=="]}}, "transpose_a": {"b": false}, "transpose_b": {"b": false}}}, {"name": "model_transfer/dense_28/BiasAdd", "op": "_FusedMatMul", "input": ["Placeholder_1", "model_transfer/dense_28/MatMul/ReadVariableOp", "model_transfer/dense_28/BiasAdd/ReadVariableOp"], "device": "/device:CPU:0", "attr": {"epsilon": {"f": 0.0}, "fused_ops": {"list": {"s": ["Qmlhc0FkZA=="]}}, "transpose_a": {"b": false}, "transpose_b": {"b": false}, "T": {"type": "DT_FLOAT"}, "num_args": {"i": "1"}}}, {"name": "model_transfer/dense_27/BiasAdd", "op": "_FusedMatMul", "input": ["Placeholder_1", "model_transfer/dense_27/MatMul/ReadVariableOp", "model_transfer/dense_27/BiasAdd/ReadVariableOp"], "device": "/device:CPU:0", "attr": {"T": {"type": "DT_FLOAT"}, "num_args": {"i": "1"}, "epsilon": {"f": 0.0}, "fused_ops": {"list": {"s": ["Qmlhc0FkZA=="]}}, "transpose_a": {"b": false}, "transpose_b": {"b": false}}}, {"name": "model_transfer/dense_26/BiasAdd", "op": "_FusedMatMul", "input": ["Placeholder_1", "model_transfer/dense_26/MatMul/ReadVariableOp", "model_transfer/dense_26/BiasAdd/ReadVariableOp"], "device": "/device:CPU:0", "attr": {"transpose_a": {"b": false}, "transpose_b": {"b": false}, "T": {"type": "DT_FLOAT"}, "num_args": {"i": "1"}, "epsilon": {"f": 0.0}, "fused_ops": {"list": {"s": ["Qmlhc0FkZA=="]}}}}, {"name": "model_transfer/dense_25/BiasAdd", "op": "_FusedMatMul", "input": ["Placeholder_1", "model_transfer/dense_25/MatMul/ReadVariableOp", "model_transfer/dense_25/BiasAdd/ReadVariableOp"], "device": "/device:CPU:0", "attr": {"fused_ops": {"list": {"s": ["Qmlhc0FkZA=="]}}, "transpose_a": {"b": false}, "transpose_b": {"b": false}, "T": {"type": "DT_FLOAT"}, "num_args": {"i": "1"}, "epsilon": {"f": 0.0}}}, {"name": "model_transfer/dense_24/BiasAdd", "op": "_FusedMatMul", "input": ["Placeholder_1", "model_transfer/dense_24/MatMul/ReadVariableOp", "model_transfer/dense_24/BiasAdd/ReadVariableOp"], "device": "/device:CPU:0", "attr": {"fused_ops": {"list": {"s": ["Qmlhc0FkZA=="]}}, "transpose_a": {"b": false}, "transpose_b": {"b": false}, "T": {"type": "DT_FLOAT"}, "num_args": {"i": "1"}, "epsilon": {"f": 0.0}}}, {"name": "model_transfer/dense_23/BiasAdd", "op": "_FusedMatMul", "input": ["Placeholder_1", "model_transfer/dense_23/MatMul/ReadVariableOp", "model_transfer/dense_23/BiasAdd/ReadVariableOp"], "device": "/device:CPU:0", "attr": {"num_args": {"i": "1"}, "epsilon": {"f": 0.0}, "fused_ops": {"list": {"s": ["Qmlhc0FkZA=="]}}, "transpose_a": {"b": false}, "transpose_b": {"b": false}, "T": {"type": "DT_FLOAT"}}}, {"name": "model_transfer/dense_22/BiasAdd", "op": "_FusedMatMul", "input": ["Placeholder_1", "model_transfer/dense_22/MatMul/ReadVariableOp", "model_transfer/dense_22/BiasAdd/ReadVariableOp"], "device": "/device:CPU:0", "attr": {"transpose_a": {"b": false}, "transpose_b": {"b": false}, "T": {"type": "DT_FLOAT"}, "num_args": {"i": "1"}, "epsilon": {"f": 0.0}, "fused_ops": {"list": {"s": ["Qmlhc0FkZA=="]}}}}, {"name": "model_transfer/dense_21/BiasAdd", "op": "_FusedMatMul", "input": ["Placeholder_1", "model_transfer/dense_21/MatMul/ReadVariableOp", "model_transfer/dense_21/BiasAdd/ReadVariableOp"], "device": "/device:CPU:0", "attr": {"num_args": {"i": "1"}, "epsilon": {"f": 0.0}, "fused_ops": {"list": {"s": ["Qmlhc0FkZA=="]}}, "transpose_a": {"b": false}, "transpose_b": {"b": false}, "T": {"type": "DT_FLOAT"}}}, {"name": "model_transfer/dense_20/BiasAdd", "op": "_FusedMatMul", "input": ["Placeholder_1", "model_transfer/dense_20/MatMul/ReadVariableOp", "model_transfer/dense_20/BiasAdd/ReadVariableOp"], "device": "/device:CPU:0", "attr": {"transpose_b": {"b": false}, "T": {"type": "DT_FLOAT"}, "num_args": {"i": "1"}, "epsilon": {"f": 0.0}, "fused_ops": {"list": {"s": ["Qmlhc0FkZA=="]}}, "transpose_a": {"b": false}}}, {"name": "model_transfer/dense_19/BiasAdd", "op": "_FusedMatMul", "input": ["Placeholder_1", "model_transfer/dense_19/MatMul/ReadVariableOp", "model_transfer/dense_19/BiasAdd/ReadVariableOp"], "device": "/device:CPU:0", "attr": {"transpose_b": {"b": false}, "T": {"type": "DT_FLOAT"}, "num_args": {"i": "1"}, "epsilon": {"f": 0.0}, "fused_ops": {"list": {"s": ["Qmlhc0FkZA=="]}}, "transpose_a": {"b": false}}}, {"name": "model_transfer/dense_18/BiasAdd", "op": "_FusedMatMul", "input": ["Placeholder_1", "model_transfer/dense_18/MatMul/ReadVariableOp", "model_transfer/dense_18/BiasAdd/ReadVariableOp"], "device": "/device:CPU:0", "attr": {"num_args": {"i": "1"}, "epsilon": {"f": 0.0}, "fused_ops": {"list": {"s": ["Qmlhc0FkZA=="]}}, "transpose_a": {"b": false}, "transpose_b": {"b": false}, "T": {"type": "DT_FLOAT"}}}, {"name": "model_transfer/dense_17/BiasAdd", "op": "_FusedMatMul", "input": ["Placeholder_1", "model_transfer/dense_17/MatMul/ReadVariableOp", "model_transfer/dense_17/BiasAdd/ReadVariableOp"], "device": "/device:CPU:0", "attr": {"epsilon": {"f": 0.0}, "fused_ops": {"list": {"s": ["Qmlhc0FkZA=="]}}, "transpose_a": {"b": false}, "transpose_b": {"b": false}, "T": {"type": "DT_FLOAT"}, "num_args": {"i": "1"}}}, {"name": "model_transfer/dense_16/BiasAdd", "op": "_FusedMatMul", "input": ["Placeholder_1", "model_transfer/dense_16/MatMul/ReadVariableOp", "model_transfer/dense_16/BiasAdd/ReadVariableOp"], "device": "/device:CPU:0", "attr": {"T": {"type": "DT_FLOAT"}, "num_args": {"i": "1"}, "epsilon": {"f": 0.0}, "fused_ops": {"list": {"s": ["Qmlhc0FkZA=="]}}, "transpose_a": {"b": false}, "transpose_b": {"b": false}}}, {"name": "model_transfer/dense_15/BiasAdd", "op": "_FusedMatMul", "input": ["Placeholder_1", "model_transfer/dense_15/MatMul/ReadVariableOp", "model_transfer/dense_15/BiasAdd/ReadVariableOp"], "device": "/device:CPU:0", "attr": {"fused_ops": {"list": {"s": ["Qmlhc0FkZA=="]}}, "transpose_a": {"b": false}, "transpose_b": {"b": false}, "T": {"type": "DT_FLOAT"}, "num_args": {"i": "1"}, "epsilon": {"f": 0.0}}}, {"name": "model_transfer/dense_14/BiasAdd", "op": "_FusedMatMul", "input": ["Placeholder_1", "model_transfer/dense_14/MatMul/ReadVariableOp", "model_transfer/dense_14/BiasAdd/ReadVariableOp"], "device": "/device:CPU:0", "attr": {"fused_ops": {"list": {"s": ["Qmlhc0FkZA=="]}}, "transpose_a": {"b": false}, "transpose_b": {"b": false}, "T": {"type": "DT_FLOAT"}, "num_args": {"i": "1"}, "epsilon": {"f": 0.0}}}, {"name": "model_transfer/dense_13/BiasAdd", "op": "_FusedMatMul", "input": ["Placeholder_1", "model_transfer/dense_13/MatMul/ReadVariableOp", "model_transfer/dense_13/BiasAdd/ReadVariableOp"], "device": "/device:CPU:0", "attr": {"transpose_a": {"b": false}, "transpose_b": {"b": false}, "T": {"type": "DT_FLOAT"}, "num_args": {"i": "1"}, "epsilon": {"f": 0.0}, "fused_ops": {"list": {"s": ["Qmlhc0FkZA=="]}}}}, {"name": "model_transfer/dense_12/BiasAdd", "op": "_FusedMatMul", "input": ["Placeholder_1", "model_transfer/dense_12/MatMul/ReadVariableOp", "model_transfer/dense_12/BiasAdd/ReadVariableOp"], "device": "/device:CPU:0", "attr": {"transpose_a": {"b": false}, "transpose_b": {"b": false}, "T": {"type": "DT_FLOAT"}, "num_args": {"i": "1"}, "epsilon": {"f": 0.0}, "fused_ops": {"list": {"s": ["Qmlhc0FkZA=="]}}}}, {"name": "model_transfer/dense_11/BiasAdd", "op": "_FusedMatMul", "input": ["Placeholder_1", "model_transfer/dense_11/MatMul/ReadVariableOp", "model_transfer/dense_11/BiasAdd/ReadVariableOp"], "device": "/device:CPU:0", "attr": {"fused_ops": {"list": {"s": ["Qmlhc0FkZA=="]}}, "transpose_a": {"b": false}, "transpose_b": {"b": false}, "T": {"type": "DT_FLOAT"}, "num_args": {"i": "1"}, "epsilon": {"f": 0.0}}}, {"name": "model_transfer/dense_10/BiasAdd", "op": "_FusedMatMul", "input": ["Placeholder_1", "model_transfer/dense_10/MatMul/ReadVariableOp", "model_transfer/dense_10/BiasAdd/ReadVariableOp"], "device": "/device:CPU:0", "attr": {"T": {"type": "DT_FLOAT"}, "num_args": {"i": "1"}, "epsilon": {"f": 0.0}, "fused_ops": {"list": {"s": ["Qmlhc0FkZA=="]}}, "transpose_a": {"b": false}, "transpose_b": {"b": false}}}, {"name": "model_transfer/dense_9/BiasAdd", "op": "_FusedMatMul", "input": ["Placeholder_1", "model_transfer/dense_9/MatMul/ReadVariableOp", "model_transfer/dense_9/BiasAdd/ReadVariableOp"], "device": "/device:CPU:0", "attr": {"fused_ops": {"list": {"s": ["Qmlhc0FkZA=="]}}, "transpose_a": {"b": false}, "transpose_b": {"b": false}, "T": {"type": "DT_FLOAT"}, "num_args": {"i": "1"}, "epsilon": {"f": 0.0}}}, {"name": "model_transfer/dense_8/BiasAdd", "op": "_FusedMatMul", "input": ["Placeholder_1", "model_transfer/dense_8/MatMul/ReadVariableOp", "model_transfer/dense_8/BiasAdd/ReadVariableOp"], "device": "/device:CPU:0", "attr": {"transpose_a": {"b": false}, "transpose_b": {"b": false}, "T": {"type": "DT_FLOAT"}, "num_args": {"i": "1"}, "epsilon": {"f": 0.0}, "fused_ops": {"list": {"s": ["Qmlhc0FkZA=="]}}}}, {"name": "model_transfer/dense_7/BiasAdd", "op": "_FusedMatMul", "input": ["Placeholder_1", "model_transfer/dense_7/MatMul/ReadVariableOp", "model_transfer/dense_7/BiasAdd/ReadVariableOp"], "device": "/device:CPU:0", "attr": {"epsilon": {"f": 0.0}, "fused_ops": {"list": {"s": ["Qmlhc0FkZA=="]}}, "transpose_a": {"b": false}, "transpose_b": {"b": false}, "T": {"type": "DT_FLOAT"}, "num_args": {"i": "1"}}}, {"name": "model_transfer/dense_6/BiasAdd", "op": "_FusedMatMul", "input": ["Placeholder_1", "model_transfer/dense_6/MatMul/ReadVariableOp", "model_transfer/dense_6/BiasAdd/ReadVariableOp"], "device": "/device:CPU:0", "attr": {"num_args": {"i": "1"}, "epsilon": {"f": 0.0}, "fused_ops": {"list": {"s": ["Qmlhc0FkZA=="]}}, "transpose_a": {"b": false}, "transpose_b": {"b": false}, "T": {"type": "DT_FLOAT"}}}, {"name": "model_transfer/dense_5/BiasAdd", "op": "_FusedMatMul", "input": ["Placeholder_1", "model_transfer/dense_5/MatMul/ReadVariableOp", "model_transfer/dense_5/BiasAdd/ReadVariableOp"], "device": "/device:CPU:0", "attr": {"num_args": {"i": "1"}, "epsilon": {"f": 0.0}, "fused_ops": {"list": {"s": ["Qmlhc0FkZA=="]}}, "transpose_a": {"b": false}, "transpose_b": {"b": false}, "T": {"type": "DT_FLOAT"}}}, {"name": "model_transfer/dense_4/BiasAdd", "op": "_FusedMatMul", "input": ["Placeholder_1", "model_transfer/dense_4/MatMul/ReadVariableOp", "model_transfer/dense_4/BiasAdd/ReadVariableOp"], "device": "/device:CPU:0", "attr": {"T": {"type": "DT_FLOAT"}, "num_args": {"i": "1"}, "epsilon": {"f": 0.0}, "fused_ops": {"list": {"s": ["Qmlhc0FkZA=="]}}, "transpose_a": {"b": false}, "transpose_b": {"b": false}}}, {"name": "model_transfer/dense_3/BiasAdd", "op": "_FusedMatMul", "input": ["Placeholder_1", "model_transfer/dense_3/MatMul/ReadVariableOp", "model_transfer/dense_3/BiasAdd/ReadVariableOp"], "device": "/device:CPU:0", "attr": {"num_args": {"i": "1"}, "epsilon": {"f": 0.0}, "fused_ops": {"list": {"s": ["Qmlhc0FkZA=="]}}, "transpose_a": {"b": false}, "transpose_b": {"b": false}, "T": {"type": "DT_FLOAT"}}}, {"name": "model_transfer/dense_2/BiasAdd", "op": "_FusedMatMul", "input": ["Placeholder_1", "model_transfer/dense_2/MatMul/ReadVariableOp", "model_transfer/dense_2/BiasAdd/ReadVariableOp"], "device": "/device:CPU:0", "attr": {"num_args": {"i": "1"}, "epsilon": {"f": 0.0}, "fused_ops": {"list": {"s": ["Qmlhc0FkZA=="]}}, "transpose_a": {"b": false}, "transpose_b": {"b": false}, "T": {"type": "DT_FLOAT"}}}, {"name": "model_transfer/dense_1/BiasAdd", "op": "_FusedMatMul", "input": ["Placeholder_1", "model_transfer/dense_1/MatMul/ReadVariableOp", "model_transfer/dense_1/BiasAdd/ReadVariableOp"], "device": "/device:CPU:0", "attr": {"num_args": {"i": "1"}, "epsilon": {"f": 0.0}, "fused_ops": {"list": {"s": ["Qmlhc0FkZA=="]}}, "transpose_a": {"b": false}, "transpose_b": {"b": false}, "T": {"type": "DT_FLOAT"}}}, {"name": "model_transfer/separable_conv2d_1/separable_conv2d", "op": "Conv2D", "input": ["model_transfer/separable_conv2d_1/separable_conv2d/depthwise", "model_transfer/separable_conv2d_1/separable_conv2d/ReadVariableOp_1"], "device": "/device:CPU:0", "attr": {"dilations": {"list": {"i": ["1", "1", "1", "1"]}}, "T": {"type": "DT_FLOAT"}, "data_format": {"s": "TkhXQw=="}, "strides": {"list": {"i": ["1", "1", "1", "1"]}}, "explicit_paddings": {"list": {}}, "use_cudnn_on_gpu": {"b": true}, "padding": {"s": "VkFMSUQ="}}}, {"name": "model_transfer/instance_norm_with_scaling_inputs_15/Reshape_1", "op": "Reshape", "input": ["model_transfer/dense_30/BiasAdd", "model_transfer/instance_norm_with_scaling_inputs_1/Reshape/shape"], "attr": {"T": {"type": "DT_FLOAT"}, "Tshape": {"type": "DT_INT32"}}}, {"name": "model_transfer/instance_norm_with_scaling_inputs_15/Reshape", "op": "Reshape", "input": ["model_transfer/dense_29/BiasAdd", "model_transfer/instance_norm_with_scaling_inputs_1/Reshape/shape"], "attr": {"T": {"type": "DT_FLOAT"}, "Tshape": {"type": "DT_INT32"}}}, {"name": "model_transfer/instance_norm_with_scaling_inputs_14/Reshape_1", "op": "Reshape", "input": ["model_transfer/dense_28/BiasAdd", "model_transfer/instance_norm_with_scaling_inputs_2/Reshape/shape"], "attr": {"T": {"type": "DT_FLOAT"}, "Tshape": {"type": "DT_INT32"}}}, {"name": "model_transfer/instance_norm_with_scaling_inputs_14/Reshape", "op": "Reshape", "input": ["model_transfer/dense_27/BiasAdd", "model_transfer/instance_norm_with_scaling_inputs_2/Reshape/shape"], "attr": {"T": {"type": "DT_FLOAT"}, "Tshape": {"type": "DT_INT32"}}}, {"name": "model_transfer/instance_norm_with_scaling_inputs_13/Reshape_1", "op": "Reshape", "input": ["model_transfer/dense_26/BiasAdd", "model_transfer/instance_norm_with_scaling_inputs_3/Reshape/shape"], "attr": {"T": {"type": "DT_FLOAT"}, "Tshape": {"type": "DT_INT32"}}}, {"name": "model_transfer/instance_norm_with_scaling_inputs_13/Reshape", "op": "Reshape", "input": ["model_transfer/dense_25/BiasAdd", "model_transfer/instance_norm_with_scaling_inputs_3/Reshape/shape"], "attr": {"Tshape": {"type": "DT_INT32"}, "T": {"type": "DT_FLOAT"}}}, {"name": "model_transfer/instance_norm_with_scaling_inputs_12/Reshape_1", "op": "Reshape", "input": ["model_transfer/dense_24/BiasAdd", "model_transfer/instance_norm_with_scaling_inputs_3/Reshape/shape"], "attr": {"T": {"type": "DT_FLOAT"}, "Tshape": {"type": "DT_INT32"}}}, {"name": "model_transfer/instance_norm_with_scaling_inputs_12/Reshape", "op": "Reshape", "input": ["model_transfer/dense_23/BiasAdd", "model_transfer/instance_norm_with_scaling_inputs_3/Reshape/shape"], "attr": {"T": {"type": "DT_FLOAT"}, "Tshape": {"type": "DT_INT32"}}}, {"name": "model_transfer/instance_norm_with_scaling_inputs_11/Reshape_1", "op": "Reshape", "input": ["model_transfer/dense_22/BiasAdd", "model_transfer/instance_norm_with_scaling_inputs_3/Reshape/shape"], "attr": {"T": {"type": "DT_FLOAT"}, "Tshape": {"type": "DT_INT32"}}}, {"name": "model_transfer/instance_norm_with_scaling_inputs_11/Reshape", "op": "Reshape", "input": ["model_transfer/dense_21/BiasAdd", "model_transfer/instance_norm_with_scaling_inputs_3/Reshape/shape"], "attr": {"T": {"type": "DT_FLOAT"}, "Tshape": {"type": "DT_INT32"}}}, {"name": "model_transfer/instance_norm_with_scaling_inputs_10/Reshape_1", "op": "Reshape", "input": ["model_transfer/dense_20/BiasAdd", "model_transfer/instance_norm_with_scaling_inputs_3/Reshape/shape"], "attr": {"T": {"type": "DT_FLOAT"}, "Tshape": {"type": "DT_INT32"}}}, {"name": "model_transfer/instance_norm_with_scaling_inputs_10/Reshape", "op": "Reshape", "input": ["model_transfer/dense_19/BiasAdd", "model_transfer/instance_norm_with_scaling_inputs_3/Reshape/shape"], "attr": {"T": {"type": "DT_FLOAT"}, "Tshape": {"type": "DT_INT32"}}}, {"name": "model_transfer/instance_norm_with_scaling_inputs_9/Reshape_1", "op": "Reshape", "input": ["model_transfer/dense_18/BiasAdd", "model_transfer/instance_norm_with_scaling_inputs_3/Reshape/shape"], "attr": {"T": {"type": "DT_FLOAT"}, "Tshape": {"type": "DT_INT32"}}}, {"name": "model_transfer/instance_norm_with_scaling_inputs_9/Reshape", "op": "Reshape", "input": ["model_transfer/dense_17/BiasAdd", "model_transfer/instance_norm_with_scaling_inputs_3/Reshape/shape"], "attr": {"T": {"type": "DT_FLOAT"}, "Tshape": {"type": "DT_INT32"}}}, {"name": "model_transfer/instance_norm_with_scaling_inputs_8/Reshape_1", "op": "Reshape", "input": ["model_transfer/dense_16/BiasAdd", "model_transfer/instance_norm_with_scaling_inputs_3/Reshape/shape"], "attr": {"T": {"type": "DT_FLOAT"}, "Tshape": {"type": "DT_INT32"}}}, {"name": "model_transfer/instance_norm_with_scaling_inputs_8/Reshape", "op": "Reshape", "input": ["model_transfer/dense_15/BiasAdd", "model_transfer/instance_norm_with_scaling_inputs_3/Reshape/shape"], "attr": {"T": {"type": "DT_FLOAT"}, "Tshape": {"type": "DT_INT32"}}}, {"name": "model_transfer/instance_norm_with_scaling_inputs_7/Reshape_1", "op": "Reshape", "input": ["model_transfer/dense_14/BiasAdd", "model_transfer/instance_norm_with_scaling_inputs_3/Reshape/shape"], "attr": {"T": {"type": "DT_FLOAT"}, "Tshape": {"type": "DT_INT32"}}}, {"name": "model_transfer/instance_norm_with_scaling_inputs_7/Reshape", "op": "Reshape", "input": ["model_transfer/dense_13/BiasAdd", "model_transfer/instance_norm_with_scaling_inputs_3/Reshape/shape"], "attr": {"T": {"type": "DT_FLOAT"}, "Tshape": {"type": "DT_INT32"}}}, {"name": "model_transfer/instance_norm_with_scaling_inputs_6/Reshape_1", "op": "Reshape", "input": ["model_transfer/dense_12/BiasAdd", "model_transfer/instance_norm_with_scaling_inputs_3/Reshape/shape"], "attr": {"T": {"type": "DT_FLOAT"}, "Tshape": {"type": "DT_INT32"}}}, {"name": "model_transfer/instance_norm_with_scaling_inputs_6/Reshape", "op": "Reshape", "input": ["model_transfer/dense_11/BiasAdd", "model_transfer/instance_norm_with_scaling_inputs_3/Reshape/shape"], "attr": {"T": {"type": "DT_FLOAT"}, "Tshape": {"type": "DT_INT32"}}}, {"name": "model_transfer/instance_norm_with_scaling_inputs_5/Reshape_1", "op": "Reshape", "input": ["model_transfer/dense_10/BiasAdd", "model_transfer/instance_norm_with_scaling_inputs_3/Reshape/shape"], "attr": {"T": {"type": "DT_FLOAT"}, "Tshape": {"type": "DT_INT32"}}}, {"name": "model_transfer/instance_norm_with_scaling_inputs_5/Reshape", "op": "Reshape", "input": ["model_transfer/dense_9/BiasAdd", "model_transfer/instance_norm_with_scaling_inputs_3/Reshape/shape"], "attr": {"T": {"type": "DT_FLOAT"}, "Tshape": {"type": "DT_INT32"}}}, {"name": "model_transfer/instance_norm_with_scaling_inputs_4/Reshape_1", "op": "Reshape", "input": ["model_transfer/dense_8/BiasAdd", "model_transfer/instance_norm_with_scaling_inputs_3/Reshape/shape"], "attr": {"T": {"type": "DT_FLOAT"}, "Tshape": {"type": "DT_INT32"}}}, {"name": "model_transfer/instance_norm_with_scaling_inputs_4/Reshape", "op": "Reshape", "input": ["model_transfer/dense_7/BiasAdd", "model_transfer/instance_norm_with_scaling_inputs_3/Reshape/shape"], "attr": {"T": {"type": "DT_FLOAT"}, "Tshape": {"type": "DT_INT32"}}}, {"name": "model_transfer/instance_norm_with_scaling_inputs_3/Reshape_1", "op": "Reshape", "input": ["model_transfer/dense_6/BiasAdd", "model_transfer/instance_norm_with_scaling_inputs_3/Reshape/shape"], "attr": {"T": {"type": "DT_FLOAT"}, "Tshape": {"type": "DT_INT32"}}}, {"name": "model_transfer/instance_norm_with_scaling_inputs_3/Reshape", "op": "Reshape", "input": ["model_transfer/dense_5/BiasAdd", "model_transfer/instance_norm_with_scaling_inputs_3/Reshape/shape"], "attr": {"T": {"type": "DT_FLOAT"}, "Tshape": {"type": "DT_INT32"}}}, {"name": "model_transfer/instance_norm_with_scaling_inputs_2/Reshape_1", "op": "Reshape", "input": ["model_transfer/dense_4/BiasAdd", "model_transfer/instance_norm_with_scaling_inputs_2/Reshape/shape"], "attr": {"T": {"type": "DT_FLOAT"}, "Tshape": {"type": "DT_INT32"}}}, {"name": "model_transfer/instance_norm_with_scaling_inputs_2/Reshape", "op": "Reshape", "input": ["model_transfer/dense_3/BiasAdd", "model_transfer/instance_norm_with_scaling_inputs_2/Reshape/shape"], "attr": {"Tshape": {"type": "DT_INT32"}, "T": {"type": "DT_FLOAT"}}}, {"name": "model_transfer/instance_norm_with_scaling_inputs_1/Reshape_1", "op": "Reshape", "input": ["model_transfer/dense_2/BiasAdd", "model_transfer/instance_norm_with_scaling_inputs_1/Reshape/shape"], "attr": {"T": {"type": "DT_FLOAT"}, "Tshape": {"type": "DT_INT32"}}}, {"name": "model_transfer/instance_norm_with_scaling_inputs_1/Reshape", "op": "Reshape", "input": ["model_transfer/dense_1/BiasAdd", "model_transfer/instance_norm_with_scaling_inputs_1/Reshape/shape"], "attr": {"Tshape": {"type": "DT_INT32"}, "T": {"type": "DT_FLOAT"}}}, {"name": "model_transfer/instance_norm_with_scaling_inputs_1/Mean", "op": "Mean", "input": ["model_transfer/separable_conv2d_1/separable_conv2d", "model_transfer/instance_norm_with_scaling_inputs_15/Mean/reduction_indices"], "attr": {"Tidx": {"type": "DT_INT32"}, "keep_dims": {"b": true}, "T": {"type": "DT_FLOAT"}}}, {"name": "model_transfer/instance_norm_with_scaling_inputs_1/sub", "op": "Sub", "input": ["model_transfer/separable_conv2d_1/separable_conv2d", "model_transfer/instance_norm_with_scaling_inputs_1/Mean"], "attr": {"T": {"type": "DT_FLOAT"}}}, {"name": "model_transfer/instance_norm_with_scaling_inputs_1/reduce_std/reduce_variance/Square", "op": "Square", "input": ["model_transfer/instance_norm_with_scaling_inputs_1/sub"], "attr": {"T": {"type": "DT_FLOAT"}}}, {"name": "model_transfer/instance_norm_with_scaling_inputs_1/reduce_std/reduce_variance/Mean_1", "op": "Mean", "input": ["model_transfer/instance_norm_with_scaling_inputs_1/reduce_std/reduce_variance/Square", "model_transfer/instance_norm_with_scaling_inputs_15/Mean/reduction_indices"], "attr": {"T": {"type": "DT_FLOAT"}, "Tidx": {"type": "DT_INT32"}, "keep_dims": {"b": true}}}, {"name": "model_transfer/instance_norm_with_scaling_inputs_1/reduce_std/Sqrt", "op": "Sqrt", "input": ["model_transfer/instance_norm_with_scaling_inputs_1/reduce_std/reduce_variance/Mean_1"], "attr": {"T": {"type": "DT_FLOAT"}}}, {"name": "model_transfer/instance_norm_with_scaling_inputs_1/add", "op": "AddV2", "input": ["model_transfer/instance_norm_with_scaling_inputs_1/add/y", "model_transfer/instance_norm_with_scaling_inputs_1/reduce_std/Sqrt"], "attr": {"T": {"type": "DT_FLOAT"}}}, {"name": "model_transfer/instance_norm_with_scaling_inputs_1/truediv", "op": "RealDiv", "input": ["model_transfer/instance_norm_with_scaling_inputs_1/sub", "model_transfer/instance_norm_with_scaling_inputs_1/add"], "attr": {"T": {"type": "DT_FLOAT"}}}, {"name": "model_transfer/instance_norm_with_scaling_inputs_1/mul", "op": "Mul", "input": ["model_transfer/instance_norm_with_scaling_inputs_1/Reshape", "model_transfer/instance_norm_with_scaling_inputs_1/truediv"], "attr": {"T": {"type": "DT_FLOAT"}}}, {"name": "model_transfer/instance_norm_with_scaling_inputs_1/add_1", "op": "AddV2", "input": ["model_transfer/instance_norm_with_scaling_inputs_1/Reshape_1", "model_transfer/instance_norm_with_scaling_inputs_1/mul"], "attr": {"T": {"type": "DT_FLOAT"}}}, {"name": "model_transfer/activation_1/Relu", "op": "Relu", "input": ["model_transfer/instance_norm_with_scaling_inputs_1/add_1"], "attr": {"T": {"type": "DT_FLOAT"}}}, {"name": "model_transfer/separable_conv2d_2/separable_conv2d/depthwise", "op": "DepthwiseConv2dNative", "input": ["model_transfer/activation_1/Relu", "model_transfer/separable_conv2d_2/separable_conv2d/ReadVariableOp"], "attr": {"strides": {"list": {"i": ["1", "2", "2", "1"]}}, "data_format": {"s": "TkhXQw=="}, "padding": {"s": "U0FNRQ=="}, "dilations": {"list": {"i": ["1", "1", "1", "1"]}}, "T": {"type": "DT_FLOAT"}}}, {"name": "model_transfer/separable_conv2d_2/separable_conv2d", "op": "Conv2D", "input": ["model_transfer/separable_conv2d_2/separable_conv2d/depthwise", "model_transfer/separable_conv2d_2/separable_conv2d/ReadVariableOp_1"], "device": "/device:CPU:0", "attr": {"padding": {"s": "VkFMSUQ="}, "dilations": {"list": {"i": ["1", "1", "1", "1"]}}, "T": {"type": "DT_FLOAT"}, "strides": {"list": {"i": ["1", "1", "1", "1"]}}, "data_format": {"s": "TkhXQw=="}, "use_cudnn_on_gpu": {"b": true}, "explicit_paddings": {"list": {}}}}, {"name": "model_transfer/instance_norm_with_scaling_inputs_2/Mean", "op": "Mean", "input": ["model_transfer/separable_conv2d_2/separable_conv2d", "model_transfer/instance_norm_with_scaling_inputs_15/Mean/reduction_indices"], "attr": {"Tidx": {"type": "DT_INT32"}, "keep_dims": {"b": true}, "T": {"type": "DT_FLOAT"}}}, {"name": "model_transfer/instance_norm_with_scaling_inputs_2/sub", "op": "Sub", "input": ["model_transfer/separable_conv2d_2/separable_conv2d", "model_transfer/instance_norm_with_scaling_inputs_2/Mean"], "attr": {"T": {"type": "DT_FLOAT"}}}, {"name": "model_transfer/instance_norm_with_scaling_inputs_2/reduce_std/reduce_variance/Square", "op": "Square", "input": ["model_transfer/instance_norm_with_scaling_inputs_2/sub"], "attr": {"T": {"type": "DT_FLOAT"}}}, {"name": "model_transfer/instance_norm_with_scaling_inputs_2/reduce_std/reduce_variance/Mean_1", "op": "Mean", "input": ["model_transfer/instance_norm_with_scaling_inputs_2/reduce_std/reduce_variance/Square", "model_transfer/instance_norm_with_scaling_inputs_15/Mean/reduction_indices"], "attr": {"Tidx": {"type": "DT_INT32"}, "keep_dims": {"b": true}, "T": {"type": "DT_FLOAT"}}}, {"name": "model_transfer/instance_norm_with_scaling_inputs_2/reduce_std/Sqrt", "op": "Sqrt", "input": ["model_transfer/instance_norm_with_scaling_inputs_2/reduce_std/reduce_variance/Mean_1"], "attr": {"T": {"type": "DT_FLOAT"}}}, {"name": "model_transfer/instance_norm_with_scaling_inputs_2/add", "op": "AddV2", "input": ["model_transfer/instance_norm_with_scaling_inputs_1/add/y", "model_transfer/instance_norm_with_scaling_inputs_2/reduce_std/Sqrt"], "attr": {"T": {"type": "DT_FLOAT"}}}, {"name": "model_transfer/instance_norm_with_scaling_inputs_2/truediv", "op": "RealDiv", "input": ["model_transfer/instance_norm_with_scaling_inputs_2/sub", "model_transfer/instance_norm_with_scaling_inputs_2/add"], "attr": {"T": {"type": "DT_FLOAT"}}}, {"name": "model_transfer/instance_norm_with_scaling_inputs_2/mul", "op": "Mul", "input": ["model_transfer/instance_norm_with_scaling_inputs_2/Reshape", "model_transfer/instance_norm_with_scaling_inputs_2/truediv"], "attr": {"T": {"type": "DT_FLOAT"}}}, {"name": "model_transfer/instance_norm_with_scaling_inputs_2/add_1", "op": "AddV2", "input": ["model_transfer/instance_norm_with_scaling_inputs_2/Reshape_1", "model_transfer/instance_norm_with_scaling_inputs_2/mul"], "attr": {"T": {"type": "DT_FLOAT"}}}, {"name": "model_transfer/activation_2/Relu", "op": "Relu", "input": ["model_transfer/instance_norm_with_scaling_inputs_2/add_1"], "attr": {"T": {"type": "DT_FLOAT"}}}, {"name": "model_transfer/separable_conv2d_3/separable_conv2d/depthwise", "op": "DepthwiseConv2dNative", "input": ["model_transfer/activation_2/Relu", "model_transfer/separable_conv2d_3/separable_conv2d/ReadVariableOp"], "attr": {"T": {"type": "DT_FLOAT"}, "strides": {"list": {"i": ["1", "2", "2", "1"]}}, "data_format": {"s": "TkhXQw=="}, "padding": {"s": "U0FNRQ=="}, "dilations": {"list": {"i": ["1", "1", "1", "1"]}}}}, {"name": "model_transfer/separable_conv2d_3/separable_conv2d", "op": "Conv2D", "input": ["model_transfer/separable_conv2d_3/separable_conv2d/depthwise", "model_transfer/separable_conv2d_3/separable_conv2d/ReadVariableOp_1"], "device": "/device:CPU:0", "attr": {"dilations": {"list": {"i": ["1", "1", "1", "1"]}}, "T": {"type": "DT_FLOAT"}, "strides": {"list": {"i": ["1", "1", "1", "1"]}}, "data_format": {"s": "TkhXQw=="}, "use_cudnn_on_gpu": {"b": true}, "explicit_paddings": {"list": {}}, "padding": {"s": "VkFMSUQ="}}}, {"name": "model_transfer/instance_norm_with_scaling_inputs_3/Mean", "op": "Mean", "input": ["model_transfer/separable_conv2d_3/separable_conv2d", "model_transfer/instance_norm_with_scaling_inputs_15/Mean/reduction_indices"], "attr": {"Tidx": {"type": "DT_INT32"}, "keep_dims": {"b": true}, "T": {"type": "DT_FLOAT"}}}, {"name": "model_transfer/instance_norm_with_scaling_inputs_3/sub", "op": "Sub", "input": ["model_transfer/separable_conv2d_3/separable_conv2d", "model_transfer/instance_norm_with_scaling_inputs_3/Mean"], "attr": {"T": {"type": "DT_FLOAT"}}}, {"name": "model_transfer/instance_norm_with_scaling_inputs_3/reduce_std/reduce_variance/Square", "op": "Square", "input": ["model_transfer/instance_norm_with_scaling_inputs_3/sub"], "attr": {"T": {"type": "DT_FLOAT"}}}, {"name": "model_transfer/instance_norm_with_scaling_inputs_3/reduce_std/reduce_variance/Mean_1", "op": "Mean", "input": ["model_transfer/instance_norm_with_scaling_inputs_3/reduce_std/reduce_variance/Square", "model_transfer/instance_norm_with_scaling_inputs_15/Mean/reduction_indices"], "attr": {"Tidx": {"type": "DT_INT32"}, "keep_dims": {"b": true}, "T": {"type": "DT_FLOAT"}}}, {"name": "model_transfer/instance_norm_with_scaling_inputs_3/reduce_std/Sqrt", "op": "Sqrt", "input": ["model_transfer/instance_norm_with_scaling_inputs_3/reduce_std/reduce_variance/Mean_1"], "attr": {"T": {"type": "DT_FLOAT"}}}, {"name": "model_transfer/instance_norm_with_scaling_inputs_3/add", "op": "AddV2", "input": ["model_transfer/instance_norm_with_scaling_inputs_1/add/y", "model_transfer/instance_norm_with_scaling_inputs_3/reduce_std/Sqrt"], "attr": {"T": {"type": "DT_FLOAT"}}}, {"name": "model_transfer/instance_norm_with_scaling_inputs_3/truediv", "op": "RealDiv", "input": ["model_transfer/instance_norm_with_scaling_inputs_3/sub", "model_transfer/instance_norm_with_scaling_inputs_3/add"], "attr": {"T": {"type": "DT_FLOAT"}}}, {"name": "model_transfer/instance_norm_with_scaling_inputs_3/mul", "op": "Mul", "input": ["model_transfer/instance_norm_with_scaling_inputs_3/Reshape", "model_transfer/instance_norm_with_scaling_inputs_3/truediv"], "attr": {"T": {"type": "DT_FLOAT"}}}, {"name": "model_transfer/instance_norm_with_scaling_inputs_3/add_1", "op": "AddV2", "input": ["model_transfer/instance_norm_with_scaling_inputs_3/Reshape_1", "model_transfer/instance_norm_with_scaling_inputs_3/mul"], "attr": {"T": {"type": "DT_FLOAT"}}}, {"name": "model_transfer/activation_3/Relu", "op": "Relu", "input": ["model_transfer/instance_norm_with_scaling_inputs_3/add_1"], "attr": {"T": {"type": "DT_FLOAT"}}}, {"name": "model_transfer/separable_conv2d_4/separable_conv2d/depthwise", "op": "DepthwiseConv2dNative", "input": ["model_transfer/activation_3/Relu", "model_transfer/separable_conv2d_4/separable_conv2d/ReadVariableOp"], "attr": {"padding": {"s": "U0FNRQ=="}, "dilations": {"list": {"i": ["1", "1", "1", "1"]}}, "T": {"type": "DT_FLOAT"}, "strides": {"list": {"i": ["1", "1", "1", "1"]}}, "data_format": {"s": "TkhXQw=="}}}, {"name": "model_transfer/separable_conv2d_4/separable_conv2d", "op": "Conv2D", "input": ["model_transfer/separable_conv2d_4/separable_conv2d/depthwise", "model_transfer/separable_conv2d_4/separable_conv2d/ReadVariableOp_1"], "device": "/device:CPU:0", "attr": {"dilations": {"list": {"i": ["1", "1", "1", "1"]}}, "T": {"type": "DT_FLOAT"}, "strides": {"list": {"i": ["1", "1", "1", "1"]}}, "data_format": {"s": "TkhXQw=="}, "use_cudnn_on_gpu": {"b": true}, "explicit_paddings": {"list": {}}, "padding": {"s": "VkFMSUQ="}}}, {"name": "model_transfer/instance_norm_with_scaling_inputs_4/Mean", "op": "Mean", "input": ["model_transfer/separable_conv2d_4/separable_conv2d", "model_transfer/instance_norm_with_scaling_inputs_15/Mean/reduction_indices"], "attr": {"Tidx": {"type": "DT_INT32"}, "keep_dims": {"b": true}, "T": {"type": "DT_FLOAT"}}}, {"name": "model_transfer/instance_norm_with_scaling_inputs_4/sub", "op": "Sub", "input": ["model_transfer/separable_conv2d_4/separable_conv2d", "model_transfer/instance_norm_with_scaling_inputs_4/Mean"], "attr": {"T": {"type": "DT_FLOAT"}}}, {"name": "model_transfer/instance_norm_with_scaling_inputs_4/reduce_std/reduce_variance/Square", "op": "Square", "input": ["model_transfer/instance_norm_with_scaling_inputs_4/sub"], "attr": {"T": {"type": "DT_FLOAT"}}}, {"name": "model_transfer/instance_norm_with_scaling_inputs_4/reduce_std/reduce_variance/Mean_1", "op": "Mean", "input": ["model_transfer/instance_norm_with_scaling_inputs_4/reduce_std/reduce_variance/Square", "model_transfer/instance_norm_with_scaling_inputs_15/Mean/reduction_indices"], "attr": {"T": {"type": "DT_FLOAT"}, "Tidx": {"type": "DT_INT32"}, "keep_dims": {"b": true}}}, {"name": "model_transfer/instance_norm_with_scaling_inputs_4/reduce_std/Sqrt", "op": "Sqrt", "input": ["model_transfer/instance_norm_with_scaling_inputs_4/reduce_std/reduce_variance/Mean_1"], "attr": {"T": {"type": "DT_FLOAT"}}}, {"name": "model_transfer/instance_norm_with_scaling_inputs_4/add", "op": "AddV2", "input": ["model_transfer/instance_norm_with_scaling_inputs_1/add/y", "model_transfer/instance_norm_with_scaling_inputs_4/reduce_std/Sqrt"], "attr": {"T": {"type": "DT_FLOAT"}}}, {"name": "model_transfer/instance_norm_with_scaling_inputs_4/truediv", "op": "RealDiv", "input": ["model_transfer/instance_norm_with_scaling_inputs_4/sub", "model_transfer/instance_norm_with_scaling_inputs_4/add"], "attr": {"T": {"type": "DT_FLOAT"}}}, {"name": "model_transfer/instance_norm_with_scaling_inputs_4/mul", "op": "Mul", "input": ["model_transfer/instance_norm_with_scaling_inputs_4/Reshape", "model_transfer/instance_norm_with_scaling_inputs_4/truediv"], "attr": {"T": {"type": "DT_FLOAT"}}}, {"name": "model_transfer/instance_norm_with_scaling_inputs_4/add_1", "op": "AddV2", "input": ["model_transfer/instance_norm_with_scaling_inputs_4/Reshape_1", "model_transfer/instance_norm_with_scaling_inputs_4/mul"], "attr": {"T": {"type": "DT_FLOAT"}}}, {"name": "model_transfer/activation_4/Relu", "op": "Relu", "input": ["model_transfer/instance_norm_with_scaling_inputs_4/add_1"], "attr": {"T": {"type": "DT_FLOAT"}}}, {"name": "model_transfer/separable_conv2d_5/separable_conv2d/depthwise", "op": "DepthwiseConv2dNative", "input": ["model_transfer/activation_4/Relu", "model_transfer/separable_conv2d_5/separable_conv2d/ReadVariableOp"], "attr": {"padding": {"s": "U0FNRQ=="}, "dilations": {"list": {"i": ["1", "1", "1", "1"]}}, "T": {"type": "DT_FLOAT"}, "strides": {"list": {"i": ["1", "1", "1", "1"]}}, "data_format": {"s": "TkhXQw=="}}}, {"name": "model_transfer/separable_conv2d_5/separable_conv2d", "op": "Conv2D", "input": ["model_transfer/separable_conv2d_5/separable_conv2d/depthwise", "model_transfer/separable_conv2d_5/separable_conv2d/ReadVariableOp_1"], "device": "/device:CPU:0", "attr": {"dilations": {"list": {"i": ["1", "1", "1", "1"]}}, "T": {"type": "DT_FLOAT"}, "data_format": {"s": "TkhXQw=="}, "strides": {"list": {"i": ["1", "1", "1", "1"]}}, "explicit_paddings": {"list": {}}, "use_cudnn_on_gpu": {"b": true}, "padding": {"s": "VkFMSUQ="}}}, {"name": "model_transfer/instance_norm_with_scaling_inputs_5/Mean", "op": "Mean", "input": ["model_transfer/separable_conv2d_5/separable_conv2d", "model_transfer/instance_norm_with_scaling_inputs_15/Mean/reduction_indices"], "attr": {"Tidx": {"type": "DT_INT32"}, "keep_dims": {"b": true}, "T": {"type": "DT_FLOAT"}}}, {"name": "model_transfer/instance_norm_with_scaling_inputs_5/sub", "op": "Sub", "input": ["model_transfer/separable_conv2d_5/separable_conv2d", "model_transfer/instance_norm_with_scaling_inputs_5/Mean"], "attr": {"T": {"type": "DT_FLOAT"}}}, {"name": "model_transfer/instance_norm_with_scaling_inputs_5/reduce_std/reduce_variance/Square", "op": "Square", "input": ["model_transfer/instance_norm_with_scaling_inputs_5/sub"], "attr": {"T": {"type": "DT_FLOAT"}}}, {"name": "model_transfer/instance_norm_with_scaling_inputs_5/reduce_std/reduce_variance/Mean_1", "op": "Mean", "input": ["model_transfer/instance_norm_with_scaling_inputs_5/reduce_std/reduce_variance/Square", "model_transfer/instance_norm_with_scaling_inputs_15/Mean/reduction_indices"], "attr": {"Tidx": {"type": "DT_INT32"}, "keep_dims": {"b": true}, "T": {"type": "DT_FLOAT"}}}, {"name": "model_transfer/instance_norm_with_scaling_inputs_5/reduce_std/Sqrt", "op": "Sqrt", "input": ["model_transfer/instance_norm_with_scaling_inputs_5/reduce_std/reduce_variance/Mean_1"], "attr": {"T": {"type": "DT_FLOAT"}}}, {"name": "model_transfer/instance_norm_with_scaling_inputs_5/add", "op": "AddV2", "input": ["model_transfer/instance_norm_with_scaling_inputs_1/add/y", "model_transfer/instance_norm_with_scaling_inputs_5/reduce_std/Sqrt"], "attr": {"T": {"type": "DT_FLOAT"}}}, {"name": "model_transfer/instance_norm_with_scaling_inputs_5/truediv", "op": "RealDiv", "input": ["model_transfer/instance_norm_with_scaling_inputs_5/sub", "model_transfer/instance_norm_with_scaling_inputs_5/add"], "attr": {"T": {"type": "DT_FLOAT"}}}, {"name": "model_transfer/instance_norm_with_scaling_inputs_5/mul", "op": "Mul", "input": ["model_transfer/instance_norm_with_scaling_inputs_5/Reshape", "model_transfer/instance_norm_with_scaling_inputs_5/truediv"], "attr": {"T": {"type": "DT_FLOAT"}}}, {"name": "model_transfer/instance_norm_with_scaling_inputs_5/add_1", "op": "AddV2", "input": ["model_transfer/instance_norm_with_scaling_inputs_5/Reshape_1", "model_transfer/instance_norm_with_scaling_inputs_5/mul"], "attr": {"T": {"type": "DT_FLOAT"}}}, {"name": "model_transfer/add_1/add", "op": "AddV2", "input": ["model_transfer/activation_3/Relu", "model_transfer/instance_norm_with_scaling_inputs_5/add_1"], "attr": {"T": {"type": "DT_FLOAT"}}}, {"name": "model_transfer/activation_5/Relu", "op": "Relu", "input": ["model_transfer/add_1/add"], "attr": {"T": {"type": "DT_FLOAT"}}}, {"name": "model_transfer/separable_conv2d_6/separable_conv2d/depthwise", "op": "DepthwiseConv2dNative", "input": ["model_transfer/activation_5/Relu", "model_transfer/separable_conv2d_6/separable_conv2d/ReadVariableOp"], "attr": {"padding": {"s": "U0FNRQ=="}, "dilations": {"list": {"i": ["1", "1", "1", "1"]}}, "T": {"type": "DT_FLOAT"}, "strides": {"list": {"i": ["1", "1", "1", "1"]}}, "data_format": {"s": "TkhXQw=="}}}, {"name": "model_transfer/separable_conv2d_6/separable_conv2d", "op": "Conv2D", "input": ["model_transfer/separable_conv2d_6/separable_conv2d/depthwise", "model_transfer/separable_conv2d_6/separable_conv2d/ReadVariableOp_1"], "device": "/device:CPU:0", "attr": {"padding": {"s": "VkFMSUQ="}, "dilations": {"list": {"i": ["1", "1", "1", "1"]}}, "T": {"type": "DT_FLOAT"}, "strides": {"list": {"i": ["1", "1", "1", "1"]}}, "data_format": {"s": "TkhXQw=="}, "explicit_paddings": {"list": {}}, "use_cudnn_on_gpu": {"b": true}}}, {"name": "model_transfer/instance_norm_with_scaling_inputs_6/Mean", "op": "Mean", "input": ["model_transfer/separable_conv2d_6/separable_conv2d", "model_transfer/instance_norm_with_scaling_inputs_15/Mean/reduction_indices"], "attr": {"T": {"type": "DT_FLOAT"}, "Tidx": {"type": "DT_INT32"}, "keep_dims": {"b": true}}}, {"name": "model_transfer/instance_norm_with_scaling_inputs_6/sub", "op": "Sub", "input": ["model_transfer/separable_conv2d_6/separable_conv2d", "model_transfer/instance_norm_with_scaling_inputs_6/Mean"], "attr": {"T": {"type": "DT_FLOAT"}}}, {"name": "model_transfer/instance_norm_with_scaling_inputs_6/reduce_std/reduce_variance/Square", "op": "Square", "input": ["model_transfer/instance_norm_with_scaling_inputs_6/sub"], "attr": {"T": {"type": "DT_FLOAT"}}}, {"name": "model_transfer/instance_norm_with_scaling_inputs_6/reduce_std/reduce_variance/Mean_1", "op": "Mean", "input": ["model_transfer/instance_norm_with_scaling_inputs_6/reduce_std/reduce_variance/Square", "model_transfer/instance_norm_with_scaling_inputs_15/Mean/reduction_indices"], "attr": {"T": {"type": "DT_FLOAT"}, "Tidx": {"type": "DT_INT32"}, "keep_dims": {"b": true}}}, {"name": "model_transfer/instance_norm_with_scaling_inputs_6/reduce_std/Sqrt", "op": "Sqrt", "input": ["model_transfer/instance_norm_with_scaling_inputs_6/reduce_std/reduce_variance/Mean_1"], "attr": {"T": {"type": "DT_FLOAT"}}}, {"name": "model_transfer/instance_norm_with_scaling_inputs_6/add", "op": "AddV2", "input": ["model_transfer/instance_norm_with_scaling_inputs_1/add/y", "model_transfer/instance_norm_with_scaling_inputs_6/reduce_std/Sqrt"], "attr": {"T": {"type": "DT_FLOAT"}}}, {"name": "model_transfer/instance_norm_with_scaling_inputs_6/truediv", "op": "RealDiv", "input": ["model_transfer/instance_norm_with_scaling_inputs_6/sub", "model_transfer/instance_norm_with_scaling_inputs_6/add"], "attr": {"T": {"type": "DT_FLOAT"}}}, {"name": "model_transfer/instance_norm_with_scaling_inputs_6/mul", "op": "Mul", "input": ["model_transfer/instance_norm_with_scaling_inputs_6/Reshape", "model_transfer/instance_norm_with_scaling_inputs_6/truediv"], "attr": {"T": {"type": "DT_FLOAT"}}}, {"name": "model_transfer/instance_norm_with_scaling_inputs_6/add_1", "op": "AddV2", "input": ["model_transfer/instance_norm_with_scaling_inputs_6/Reshape_1", "model_transfer/instance_norm_with_scaling_inputs_6/mul"], "attr": {"T": {"type": "DT_FLOAT"}}}, {"name": "model_transfer/activation_6/Relu", "op": "Relu", "input": ["model_transfer/instance_norm_with_scaling_inputs_6/add_1"], "attr": {"T": {"type": "DT_FLOAT"}}}, {"name": "model_transfer/separable_conv2d_7/separable_conv2d/depthwise", "op": "DepthwiseConv2dNative", "input": ["model_transfer/activation_6/Relu", "model_transfer/separable_conv2d_7/separable_conv2d/ReadVariableOp"], "attr": {"strides": {"list": {"i": ["1", "1", "1", "1"]}}, "data_format": {"s": "TkhXQw=="}, "padding": {"s": "U0FNRQ=="}, "dilations": {"list": {"i": ["1", "1", "1", "1"]}}, "T": {"type": "DT_FLOAT"}}}, {"name": "model_transfer/separable_conv2d_7/separable_conv2d", "op": "Conv2D", "input": ["model_transfer/separable_conv2d_7/separable_conv2d/depthwise", "model_transfer/separable_conv2d_7/separable_conv2d/ReadVariableOp_1"], "device": "/device:CPU:0", "attr": {"padding": {"s": "VkFMSUQ="}, "dilations": {"list": {"i": ["1", "1", "1", "1"]}}, "T": {"type": "DT_FLOAT"}, "strides": {"list": {"i": ["1", "1", "1", "1"]}}, "data_format": {"s": "TkhXQw=="}, "use_cudnn_on_gpu": {"b": true}, "explicit_paddings": {"list": {}}}}, {"name": "model_transfer/instance_norm_with_scaling_inputs_7/Mean", "op": "Mean", "input": ["model_transfer/separable_conv2d_7/separable_conv2d", "model_transfer/instance_norm_with_scaling_inputs_15/Mean/reduction_indices"], "attr": {"Tidx": {"type": "DT_INT32"}, "keep_dims": {"b": true}, "T": {"type": "DT_FLOAT"}}}, {"name": "model_transfer/instance_norm_with_scaling_inputs_7/sub", "op": "Sub", "input": ["model_transfer/separable_conv2d_7/separable_conv2d", "model_transfer/instance_norm_with_scaling_inputs_7/Mean"], "attr": {"T": {"type": "DT_FLOAT"}}}, {"name": "model_transfer/instance_norm_with_scaling_inputs_7/reduce_std/reduce_variance/Square", "op": "Square", "input": ["model_transfer/instance_norm_with_scaling_inputs_7/sub"], "attr": {"T": {"type": "DT_FLOAT"}}}, {"name": "model_transfer/instance_norm_with_scaling_inputs_7/reduce_std/reduce_variance/Mean_1", "op": "Mean", "input": ["model_transfer/instance_norm_with_scaling_inputs_7/reduce_std/reduce_variance/Square", "model_transfer/instance_norm_with_scaling_inputs_15/Mean/reduction_indices"], "attr": {"Tidx": {"type": "DT_INT32"}, "keep_dims": {"b": true}, "T": {"type": "DT_FLOAT"}}}, {"name": "model_transfer/instance_norm_with_scaling_inputs_7/reduce_std/Sqrt", "op": "Sqrt", "input": ["model_transfer/instance_norm_with_scaling_inputs_7/reduce_std/reduce_variance/Mean_1"], "attr": {"T": {"type": "DT_FLOAT"}}}, {"name": "model_transfer/instance_norm_with_scaling_inputs_7/add", "op": "AddV2", "input": ["model_transfer/instance_norm_with_scaling_inputs_1/add/y", "model_transfer/instance_norm_with_scaling_inputs_7/reduce_std/Sqrt"], "attr": {"T": {"type": "DT_FLOAT"}}}, {"name": "model_transfer/instance_norm_with_scaling_inputs_7/truediv", "op": "RealDiv", "input": ["model_transfer/instance_norm_with_scaling_inputs_7/sub", "model_transfer/instance_norm_with_scaling_inputs_7/add"], "attr": {"T": {"type": "DT_FLOAT"}}}, {"name": "model_transfer/instance_norm_with_scaling_inputs_7/mul", "op": "Mul", "input": ["model_transfer/instance_norm_with_scaling_inputs_7/Reshape", "model_transfer/instance_norm_with_scaling_inputs_7/truediv"], "attr": {"T": {"type": "DT_FLOAT"}}}, {"name": "model_transfer/instance_norm_with_scaling_inputs_7/add_1", "op": "AddV2", "input": ["model_transfer/instance_norm_with_scaling_inputs_7/Reshape_1", "model_transfer/instance_norm_with_scaling_inputs_7/mul"], "attr": {"T": {"type": "DT_FLOAT"}}}, {"name": "model_transfer/add_2/add", "op": "AddV2", "input": ["model_transfer/activation_5/Relu", "model_transfer/instance_norm_with_scaling_inputs_7/add_1"], "attr": {"T": {"type": "DT_FLOAT"}}}, {"name": "model_transfer/activation_7/Relu", "op": "Relu", "input": ["model_transfer/add_2/add"], "attr": {"T": {"type": "DT_FLOAT"}}}, {"name": "model_transfer/separable_conv2d_8/separable_conv2d/depthwise", "op": "DepthwiseConv2dNative", "input": ["model_transfer/activation_7/Relu", "model_transfer/separable_conv2d_8/separable_conv2d/ReadVariableOp"], "attr": {"padding": {"s": "U0FNRQ=="}, "dilations": {"list": {"i": ["1", "1", "1", "1"]}}, "T": {"type": "DT_FLOAT"}, "strides": {"list": {"i": ["1", "1", "1", "1"]}}, "data_format": {"s": "TkhXQw=="}}}, {"name": "model_transfer/separable_conv2d_8/separable_conv2d", "op": "Conv2D", "input": ["model_transfer/separable_conv2d_8/separable_conv2d/depthwise", "model_transfer/separable_conv2d_8/separable_conv2d/ReadVariableOp_1"], "device": "/device:CPU:0", "attr": {"dilations": {"list": {"i": ["1", "1", "1", "1"]}}, "T": {"type": "DT_FLOAT"}, "data_format": {"s": "TkhXQw=="}, "strides": {"list": {"i": ["1", "1", "1", "1"]}}, "use_cudnn_on_gpu": {"b": true}, "explicit_paddings": {"list": {}}, "padding": {"s": "VkFMSUQ="}}}, {"name": "model_transfer/instance_norm_with_scaling_inputs_8/Mean", "op": "Mean", "input": ["model_transfer/separable_conv2d_8/separable_conv2d", "model_transfer/instance_norm_with_scaling_inputs_15/Mean/reduction_indices"], "attr": {"Tidx": {"type": "DT_INT32"}, "keep_dims": {"b": true}, "T": {"type": "DT_FLOAT"}}}, {"name": "model_transfer/instance_norm_with_scaling_inputs_8/sub", "op": "Sub", "input": ["model_transfer/separable_conv2d_8/separable_conv2d", "model_transfer/instance_norm_with_scaling_inputs_8/Mean"], "attr": {"T": {"type": "DT_FLOAT"}}}, {"name": "model_transfer/instance_norm_with_scaling_inputs_8/reduce_std/reduce_variance/Square", "op": "Square", "input": ["model_transfer/instance_norm_with_scaling_inputs_8/sub"], "attr": {"T": {"type": "DT_FLOAT"}}}, {"name": "model_transfer/instance_norm_with_scaling_inputs_8/reduce_std/reduce_variance/Mean_1", "op": "Mean", "input": ["model_transfer/instance_norm_with_scaling_inputs_8/reduce_std/reduce_variance/Square", "model_transfer/instance_norm_with_scaling_inputs_15/Mean/reduction_indices"], "attr": {"Tidx": {"type": "DT_INT32"}, "keep_dims": {"b": true}, "T": {"type": "DT_FLOAT"}}}, {"name": "model_transfer/instance_norm_with_scaling_inputs_8/reduce_std/Sqrt", "op": "Sqrt", "input": ["model_transfer/instance_norm_with_scaling_inputs_8/reduce_std/reduce_variance/Mean_1"], "attr": {"T": {"type": "DT_FLOAT"}}}, {"name": "model_transfer/instance_norm_with_scaling_inputs_8/add", "op": "AddV2", "input": ["model_transfer/instance_norm_with_scaling_inputs_1/add/y", "model_transfer/instance_norm_with_scaling_inputs_8/reduce_std/Sqrt"], "attr": {"T": {"type": "DT_FLOAT"}}}, {"name": "model_transfer/instance_norm_with_scaling_inputs_8/truediv", "op": "RealDiv", "input": ["model_transfer/instance_norm_with_scaling_inputs_8/sub", "model_transfer/instance_norm_with_scaling_inputs_8/add"], "attr": {"T": {"type": "DT_FLOAT"}}}, {"name": "model_transfer/instance_norm_with_scaling_inputs_8/mul", "op": "Mul", "input": ["model_transfer/instance_norm_with_scaling_inputs_8/Reshape", "model_transfer/instance_norm_with_scaling_inputs_8/truediv"], "attr": {"T": {"type": "DT_FLOAT"}}}, {"name": "model_transfer/instance_norm_with_scaling_inputs_8/add_1", "op": "AddV2", "input": ["model_transfer/instance_norm_with_scaling_inputs_8/Reshape_1", "model_transfer/instance_norm_with_scaling_inputs_8/mul"], "attr": {"T": {"type": "DT_FLOAT"}}}, {"name": "model_transfer/activation_8/Relu", "op": "Relu", "input": ["model_transfer/instance_norm_with_scaling_inputs_8/add_1"], "attr": {"T": {"type": "DT_FLOAT"}}}, {"name": "model_transfer/separable_conv2d_9/separable_conv2d/depthwise", "op": "DepthwiseConv2dNative", "input": ["model_transfer/activation_8/Relu", "model_transfer/separable_conv2d_9/separable_conv2d/ReadVariableOp"], "attr": {"padding": {"s": "U0FNRQ=="}, "dilations": {"list": {"i": ["1", "1", "1", "1"]}}, "T": {"type": "DT_FLOAT"}, "strides": {"list": {"i": ["1", "1", "1", "1"]}}, "data_format": {"s": "TkhXQw=="}}}, {"name": "model_transfer/separable_conv2d_9/separable_conv2d", "op": "Conv2D", "input": ["model_transfer/separable_conv2d_9/separable_conv2d/depthwise", "model_transfer/separable_conv2d_9/separable_conv2d/ReadVariableOp_1"], "device": "/device:CPU:0", "attr": {"dilations": {"list": {"i": ["1", "1", "1", "1"]}}, "T": {"type": "DT_FLOAT"}, "data_format": {"s": "TkhXQw=="}, "strides": {"list": {"i": ["1", "1", "1", "1"]}}, "explicit_paddings": {"list": {}}, "use_cudnn_on_gpu": {"b": true}, "padding": {"s": "VkFMSUQ="}}}, {"name": "model_transfer/instance_norm_with_scaling_inputs_9/Mean", "op": "Mean", "input": ["model_transfer/separable_conv2d_9/separable_conv2d", "model_transfer/instance_norm_with_scaling_inputs_15/Mean/reduction_indices"], "attr": {"T": {"type": "DT_FLOAT"}, "Tidx": {"type": "DT_INT32"}, "keep_dims": {"b": true}}}, {"name": "model_transfer/instance_norm_with_scaling_inputs_9/sub", "op": "Sub", "input": ["model_transfer/separable_conv2d_9/separable_conv2d", "model_transfer/instance_norm_with_scaling_inputs_9/Mean"], "attr": {"T": {"type": "DT_FLOAT"}}}, {"name": "model_transfer/instance_norm_with_scaling_inputs_9/reduce_std/reduce_variance/Square", "op": "Square", "input": ["model_transfer/instance_norm_with_scaling_inputs_9/sub"], "attr": {"T": {"type": "DT_FLOAT"}}}, {"name": "model_transfer/instance_norm_with_scaling_inputs_9/reduce_std/reduce_variance/Mean_1", "op": "Mean", "input": ["model_transfer/instance_norm_with_scaling_inputs_9/reduce_std/reduce_variance/Square", "model_transfer/instance_norm_with_scaling_inputs_15/Mean/reduction_indices"], "attr": {"Tidx": {"type": "DT_INT32"}, "keep_dims": {"b": true}, "T": {"type": "DT_FLOAT"}}}, {"name": "model_transfer/instance_norm_with_scaling_inputs_9/reduce_std/Sqrt", "op": "Sqrt", "input": ["model_transfer/instance_norm_with_scaling_inputs_9/reduce_std/reduce_variance/Mean_1"], "attr": {"T": {"type": "DT_FLOAT"}}}, {"name": "model_transfer/instance_norm_with_scaling_inputs_9/add", "op": "AddV2", "input": ["model_transfer/instance_norm_with_scaling_inputs_1/add/y", "model_transfer/instance_norm_with_scaling_inputs_9/reduce_std/Sqrt"], "attr": {"T": {"type": "DT_FLOAT"}}}, {"name": "model_transfer/instance_norm_with_scaling_inputs_9/truediv", "op": "RealDiv", "input": ["model_transfer/instance_norm_with_scaling_inputs_9/sub", "model_transfer/instance_norm_with_scaling_inputs_9/add"], "attr": {"T": {"type": "DT_FLOAT"}}}, {"name": "model_transfer/instance_norm_with_scaling_inputs_9/mul", "op": "Mul", "input": ["model_transfer/instance_norm_with_scaling_inputs_9/Reshape", "model_transfer/instance_norm_with_scaling_inputs_9/truediv"], "attr": {"T": {"type": "DT_FLOAT"}}}, {"name": "model_transfer/instance_norm_with_scaling_inputs_9/add_1", "op": "AddV2", "input": ["model_transfer/instance_norm_with_scaling_inputs_9/Reshape_1", "model_transfer/instance_norm_with_scaling_inputs_9/mul"], "attr": {"T": {"type": "DT_FLOAT"}}}, {"name": "model_transfer/add_3/add", "op": "AddV2", "input": ["model_transfer/activation_7/Relu", "model_transfer/instance_norm_with_scaling_inputs_9/add_1"], "attr": {"T": {"type": "DT_FLOAT"}}}, {"name": "model_transfer/activation_9/Relu", "op": "Relu", "input": ["model_transfer/add_3/add"], "attr": {"T": {"type": "DT_FLOAT"}}}, {"name": "model_transfer/separable_conv2d_10/separable_conv2d/depthwise", "op": "DepthwiseConv2dNative", "input": ["model_transfer/activation_9/Relu", "model_transfer/separable_conv2d_10/separable_conv2d/ReadVariableOp"], "attr": {"strides": {"list": {"i": ["1", "1", "1", "1"]}}, "data_format": {"s": "TkhXQw=="}, "padding": {"s": "U0FNRQ=="}, "dilations": {"list": {"i": ["1", "1", "1", "1"]}}, "T": {"type": "DT_FLOAT"}}}, {"name": "model_transfer/separable_conv2d_10/separable_conv2d", "op": "Conv2D", "input": ["model_transfer/separable_conv2d_10/separable_conv2d/depthwise", "model_transfer/separable_conv2d_10/separable_conv2d/ReadVariableOp_1"], "device": "/device:CPU:0", "attr": {"padding": {"s": "VkFMSUQ="}, "dilations": {"list": {"i": ["1", "1", "1", "1"]}}, "T": {"type": "DT_FLOAT"}, "strides": {"list": {"i": ["1", "1", "1", "1"]}}, "data_format": {"s": "TkhXQw=="}, "use_cudnn_on_gpu": {"b": true}, "explicit_paddings": {"list": {}}}}, {"name": "model_transfer/instance_norm_with_scaling_inputs_10/Mean", "op": "Mean", "input": ["model_transfer/separable_conv2d_10/separable_conv2d", "model_transfer/instance_norm_with_scaling_inputs_15/Mean/reduction_indices"], "attr": {"Tidx": {"type": "DT_INT32"}, "keep_dims": {"b": true}, "T": {"type": "DT_FLOAT"}}}, {"name": "model_transfer/instance_norm_with_scaling_inputs_10/sub", "op": "Sub", "input": ["model_transfer/separable_conv2d_10/separable_conv2d", "model_transfer/instance_norm_with_scaling_inputs_10/Mean"], "attr": {"T": {"type": "DT_FLOAT"}}}, {"name": "model_transfer/instance_norm_with_scaling_inputs_10/reduce_std/reduce_variance/Square", "op": "Square", "input": ["model_transfer/instance_norm_with_scaling_inputs_10/sub"], "attr": {"T": {"type": "DT_FLOAT"}}}, {"name": "model_transfer/instance_norm_with_scaling_inputs_10/reduce_std/reduce_variance/Mean_1", "op": "Mean", "input": ["model_transfer/instance_norm_with_scaling_inputs_10/reduce_std/reduce_variance/Square", "model_transfer/instance_norm_with_scaling_inputs_15/Mean/reduction_indices"], "attr": {"Tidx": {"type": "DT_INT32"}, "keep_dims": {"b": true}, "T": {"type": "DT_FLOAT"}}}, {"name": "model_transfer/instance_norm_with_scaling_inputs_10/reduce_std/Sqrt", "op": "Sqrt", "input": ["model_transfer/instance_norm_with_scaling_inputs_10/reduce_std/reduce_variance/Mean_1"], "attr": {"T": {"type": "DT_FLOAT"}}}, {"name": "model_transfer/instance_norm_with_scaling_inputs_10/add", "op": "AddV2", "input": ["model_transfer/instance_norm_with_scaling_inputs_1/add/y", "model_transfer/instance_norm_with_scaling_inputs_10/reduce_std/Sqrt"], "attr": {"T": {"type": "DT_FLOAT"}}}, {"name": "model_transfer/instance_norm_with_scaling_inputs_10/truediv", "op": "RealDiv", "input": ["model_transfer/instance_norm_with_scaling_inputs_10/sub", "model_transfer/instance_norm_with_scaling_inputs_10/add"], "attr": {"T": {"type": "DT_FLOAT"}}}, {"name": "model_transfer/instance_norm_with_scaling_inputs_10/mul", "op": "Mul", "input": ["model_transfer/instance_norm_with_scaling_inputs_10/Reshape", "model_transfer/instance_norm_with_scaling_inputs_10/truediv"], "attr": {"T": {"type": "DT_FLOAT"}}}, {"name": "model_transfer/instance_norm_with_scaling_inputs_10/add_1", "op": "AddV2", "input": ["model_transfer/instance_norm_with_scaling_inputs_10/Reshape_1", "model_transfer/instance_norm_with_scaling_inputs_10/mul"], "attr": {"T": {"type": "DT_FLOAT"}}}, {"name": "model_transfer/activation_10/Relu", "op": "Relu", "input": ["model_transfer/instance_norm_with_scaling_inputs_10/add_1"], "attr": {"T": {"type": "DT_FLOAT"}}}, {"name": "model_transfer/separable_conv2d_11/separable_conv2d/depthwise", "op": "DepthwiseConv2dNative", "input": ["model_transfer/activation_10/Relu", "model_transfer/separable_conv2d_11/separable_conv2d/ReadVariableOp"], "attr": {"padding": {"s": "U0FNRQ=="}, "dilations": {"list": {"i": ["1", "1", "1", "1"]}}, "T": {"type": "DT_FLOAT"}, "strides": {"list": {"i": ["1", "1", "1", "1"]}}, "data_format": {"s": "TkhXQw=="}}}, {"name": "model_transfer/separable_conv2d_11/separable_conv2d", "op": "Conv2D", "input": ["model_transfer/separable_conv2d_11/separable_conv2d/depthwise", "model_transfer/separable_conv2d_11/separable_conv2d/ReadVariableOp_1"], "device": "/device:CPU:0", "attr": {"T": {"type": "DT_FLOAT"}, "data_format": {"s": "TkhXQw=="}, "strides": {"list": {"i": ["1", "1", "1", "1"]}}, "use_cudnn_on_gpu": {"b": true}, "explicit_paddings": {"list": {}}, "padding": {"s": "VkFMSUQ="}, "dilations": {"list": {"i": ["1", "1", "1", "1"]}}}}, {"name": "model_transfer/instance_norm_with_scaling_inputs_11/Mean", "op": "Mean", "input": ["model_transfer/separable_conv2d_11/separable_conv2d", "model_transfer/instance_norm_with_scaling_inputs_15/Mean/reduction_indices"], "attr": {"T": {"type": "DT_FLOAT"}, "Tidx": {"type": "DT_INT32"}, "keep_dims": {"b": true}}}, {"name": "model_transfer/instance_norm_with_scaling_inputs_11/sub", "op": "Sub", "input": ["model_transfer/separable_conv2d_11/separable_conv2d", "model_transfer/instance_norm_with_scaling_inputs_11/Mean"], "attr": {"T": {"type": "DT_FLOAT"}}}, {"name": "model_transfer/instance_norm_with_scaling_inputs_11/reduce_std/reduce_variance/Square", "op": "Square", "input": ["model_transfer/instance_norm_with_scaling_inputs_11/sub"], "attr": {"T": {"type": "DT_FLOAT"}}}, {"name": "model_transfer/instance_norm_with_scaling_inputs_11/reduce_std/reduce_variance/Mean_1", "op": "Mean", "input": ["model_transfer/instance_norm_with_scaling_inputs_11/reduce_std/reduce_variance/Square", "model_transfer/instance_norm_with_scaling_inputs_15/Mean/reduction_indices"], "attr": {"T": {"type": "DT_FLOAT"}, "Tidx": {"type": "DT_INT32"}, "keep_dims": {"b": true}}}, {"name": "model_transfer/instance_norm_with_scaling_inputs_11/reduce_std/Sqrt", "op": "Sqrt", "input": ["model_transfer/instance_norm_with_scaling_inputs_11/reduce_std/reduce_variance/Mean_1"], "attr": {"T": {"type": "DT_FLOAT"}}}, {"name": "model_transfer/instance_norm_with_scaling_inputs_11/add", "op": "AddV2", "input": ["model_transfer/instance_norm_with_scaling_inputs_1/add/y", "model_transfer/instance_norm_with_scaling_inputs_11/reduce_std/Sqrt"], "attr": {"T": {"type": "DT_FLOAT"}}}, {"name": "model_transfer/instance_norm_with_scaling_inputs_11/truediv", "op": "RealDiv", "input": ["model_transfer/instance_norm_with_scaling_inputs_11/sub", "model_transfer/instance_norm_with_scaling_inputs_11/add"], "attr": {"T": {"type": "DT_FLOAT"}}}, {"name": "model_transfer/instance_norm_with_scaling_inputs_11/mul", "op": "Mul", "input": ["model_transfer/instance_norm_with_scaling_inputs_11/Reshape", "model_transfer/instance_norm_with_scaling_inputs_11/truediv"], "attr": {"T": {"type": "DT_FLOAT"}}}, {"name": "model_transfer/instance_norm_with_scaling_inputs_11/add_1", "op": "AddV2", "input": ["model_transfer/instance_norm_with_scaling_inputs_11/Reshape_1", "model_transfer/instance_norm_with_scaling_inputs_11/mul"], "attr": {"T": {"type": "DT_FLOAT"}}}, {"name": "model_transfer/add_4/add", "op": "AddV2", "input": ["model_transfer/activation_9/Relu", "model_transfer/instance_norm_with_scaling_inputs_11/add_1"], "attr": {"T": {"type": "DT_FLOAT"}}}, {"name": "model_transfer/activation_11/Relu", "op": "Relu", "input": ["model_transfer/add_4/add"], "attr": {"T": {"type": "DT_FLOAT"}}}, {"name": "model_transfer/separable_conv2d_12/separable_conv2d/depthwise", "op": "DepthwiseConv2dNative", "input": ["model_transfer/activation_11/Relu", "model_transfer/separable_conv2d_12/separable_conv2d/ReadVariableOp"], "attr": {"padding": {"s": "U0FNRQ=="}, "dilations": {"list": {"i": ["1", "1", "1", "1"]}}, "T": {"type": "DT_FLOAT"}, "strides": {"list": {"i": ["1", "1", "1", "1"]}}, "data_format": {"s": "TkhXQw=="}}}, {"name": "model_transfer/separable_conv2d_12/separable_conv2d", "op": "Conv2D", "input": ["model_transfer/separable_conv2d_12/separable_conv2d/depthwise", "model_transfer/separable_conv2d_12/separable_conv2d/ReadVariableOp_1"], "device": "/device:CPU:0", "attr": {"dilations": {"list": {"i": ["1", "1", "1", "1"]}}, "T": {"type": "DT_FLOAT"}, "data_format": {"s": "TkhXQw=="}, "strides": {"list": {"i": ["1", "1", "1", "1"]}}, "explicit_paddings": {"list": {}}, "use_cudnn_on_gpu": {"b": true}, "padding": {"s": "VkFMSUQ="}}}, {"name": "model_transfer/instance_norm_with_scaling_inputs_12/Mean", "op": "Mean", "input": ["model_transfer/separable_conv2d_12/separable_conv2d", "model_transfer/instance_norm_with_scaling_inputs_15/Mean/reduction_indices"], "attr": {"Tidx": {"type": "DT_INT32"}, "keep_dims": {"b": true}, "T": {"type": "DT_FLOAT"}}}, {"name": "model_transfer/instance_norm_with_scaling_inputs_12/sub", "op": "Sub", "input": ["model_transfer/separable_conv2d_12/separable_conv2d", "model_transfer/instance_norm_with_scaling_inputs_12/Mean"], "attr": {"T": {"type": "DT_FLOAT"}}}, {"name": "model_transfer/instance_norm_with_scaling_inputs_12/reduce_std/reduce_variance/Square", "op": "Square", "input": ["model_transfer/instance_norm_with_scaling_inputs_12/sub"], "attr": {"T": {"type": "DT_FLOAT"}}}, {"name": "model_transfer/instance_norm_with_scaling_inputs_12/reduce_std/reduce_variance/Mean_1", "op": "Mean", "input": ["model_transfer/instance_norm_with_scaling_inputs_12/reduce_std/reduce_variance/Square", "model_transfer/instance_norm_with_scaling_inputs_15/Mean/reduction_indices"], "attr": {"Tidx": {"type": "DT_INT32"}, "keep_dims": {"b": true}, "T": {"type": "DT_FLOAT"}}}, {"name": "model_transfer/instance_norm_with_scaling_inputs_12/reduce_std/Sqrt", "op": "Sqrt", "input": ["model_transfer/instance_norm_with_scaling_inputs_12/reduce_std/reduce_variance/Mean_1"], "attr": {"T": {"type": "DT_FLOAT"}}}, {"name": "model_transfer/instance_norm_with_scaling_inputs_12/add", "op": "AddV2", "input": ["model_transfer/instance_norm_with_scaling_inputs_1/add/y", "model_transfer/instance_norm_with_scaling_inputs_12/reduce_std/Sqrt"], "attr": {"T": {"type": "DT_FLOAT"}}}, {"name": "model_transfer/instance_norm_with_scaling_inputs_12/truediv", "op": "RealDiv", "input": ["model_transfer/instance_norm_with_scaling_inputs_12/sub", "model_transfer/instance_norm_with_scaling_inputs_12/add"], "attr": {"T": {"type": "DT_FLOAT"}}}, {"name": "model_transfer/instance_norm_with_scaling_inputs_12/mul", "op": "Mul", "input": ["model_transfer/instance_norm_with_scaling_inputs_12/Reshape", "model_transfer/instance_norm_with_scaling_inputs_12/truediv"], "attr": {"T": {"type": "DT_FLOAT"}}}, {"name": "model_transfer/instance_norm_with_scaling_inputs_12/add_1", "op": "AddV2", "input": ["model_transfer/instance_norm_with_scaling_inputs_12/Reshape_1", "model_transfer/instance_norm_with_scaling_inputs_12/mul"], "attr": {"T": {"type": "DT_FLOAT"}}}, {"name": "model_transfer/activation_12/Relu", "op": "Relu", "input": ["model_transfer/instance_norm_with_scaling_inputs_12/add_1"], "attr": {"T": {"type": "DT_FLOAT"}}}, {"name": "model_transfer/separable_conv2d_13/separable_conv2d/depthwise", "op": "DepthwiseConv2dNative", "input": ["model_transfer/activation_12/Relu", "model_transfer/separable_conv2d_13/separable_conv2d/ReadVariableOp"], "attr": {"padding": {"s": "U0FNRQ=="}, "dilations": {"list": {"i": ["1", "1", "1", "1"]}}, "T": {"type": "DT_FLOAT"}, "strides": {"list": {"i": ["1", "1", "1", "1"]}}, "data_format": {"s": "TkhXQw=="}}}, {"name": "model_transfer/separable_conv2d_13/separable_conv2d", "op": "Conv2D", "input": ["model_transfer/separable_conv2d_13/separable_conv2d/depthwise", "model_transfer/separable_conv2d_13/separable_conv2d/ReadVariableOp_1"], "device": "/device:CPU:0", "attr": {"dilations": {"list": {"i": ["1", "1", "1", "1"]}}, "T": {"type": "DT_FLOAT"}, "data_format": {"s": "TkhXQw=="}, "strides": {"list": {"i": ["1", "1", "1", "1"]}}, "explicit_paddings": {"list": {}}, "use_cudnn_on_gpu": {"b": true}, "padding": {"s": "VkFMSUQ="}}}, {"name": "model_transfer/instance_norm_with_scaling_inputs_13/Mean", "op": "Mean", "input": ["model_transfer/separable_conv2d_13/separable_conv2d", "model_transfer/instance_norm_with_scaling_inputs_15/Mean/reduction_indices"], "attr": {"Tidx": {"type": "DT_INT32"}, "keep_dims": {"b": true}, "T": {"type": "DT_FLOAT"}}}, {"name": "model_transfer/instance_norm_with_scaling_inputs_13/sub", "op": "Sub", "input": ["model_transfer/separable_conv2d_13/separable_conv2d", "model_transfer/instance_norm_with_scaling_inputs_13/Mean"], "attr": {"T": {"type": "DT_FLOAT"}}}, {"name": "model_transfer/instance_norm_with_scaling_inputs_13/reduce_std/reduce_variance/Square", "op": "Square", "input": ["model_transfer/instance_norm_with_scaling_inputs_13/sub"], "attr": {"T": {"type": "DT_FLOAT"}}}, {"name": "model_transfer/instance_norm_with_scaling_inputs_13/reduce_std/reduce_variance/Mean_1", "op": "Mean", "input": ["model_transfer/instance_norm_with_scaling_inputs_13/reduce_std/reduce_variance/Square", "model_transfer/instance_norm_with_scaling_inputs_15/Mean/reduction_indices"], "attr": {"Tidx": {"type": "DT_INT32"}, "keep_dims": {"b": true}, "T": {"type": "DT_FLOAT"}}}, {"name": "model_transfer/instance_norm_with_scaling_inputs_13/reduce_std/Sqrt", "op": "Sqrt", "input": ["model_transfer/instance_norm_with_scaling_inputs_13/reduce_std/reduce_variance/Mean_1"], "attr": {"T": {"type": "DT_FLOAT"}}}, {"name": "model_transfer/instance_norm_with_scaling_inputs_13/add", "op": "AddV2", "input": ["model_transfer/instance_norm_with_scaling_inputs_1/add/y", "model_transfer/instance_norm_with_scaling_inputs_13/reduce_std/Sqrt"], "attr": {"T": {"type": "DT_FLOAT"}}}, {"name": "model_transfer/instance_norm_with_scaling_inputs_13/truediv", "op": "RealDiv", "input": ["model_transfer/instance_norm_with_scaling_inputs_13/sub", "model_transfer/instance_norm_with_scaling_inputs_13/add"], "attr": {"T": {"type": "DT_FLOAT"}}}, {"name": "model_transfer/instance_norm_with_scaling_inputs_13/mul", "op": "Mul", "input": ["model_transfer/instance_norm_with_scaling_inputs_13/Reshape", "model_transfer/instance_norm_with_scaling_inputs_13/truediv"], "attr": {"T": {"type": "DT_FLOAT"}}}, {"name": "model_transfer/instance_norm_with_scaling_inputs_13/add_1", "op": "AddV2", "input": ["model_transfer/instance_norm_with_scaling_inputs_13/Reshape_1", "model_transfer/instance_norm_with_scaling_inputs_13/mul"], "attr": {"T": {"type": "DT_FLOAT"}}}, {"name": "model_transfer/add_5/add", "op": "AddV2", "input": ["model_transfer/activation_11/Relu", "model_transfer/instance_norm_with_scaling_inputs_13/add_1"], "attr": {"T": {"type": "DT_FLOAT"}}}, {"name": "model_transfer/activation_13/Relu", "op": "Relu", "input": ["model_transfer/add_5/add"], "attr": {"T": {"type": "DT_FLOAT"}}}, {"name": "model_transfer/up_sampling2d_1/Shape", "op": "Shape", "input": ["model_transfer/activation_13/Relu"], "attr": {"T": {"type": "DT_FLOAT"}, "out_type": {"type": "DT_INT32"}}}, {"name": "model_transfer/up_sampling2d_1/strided_slice", "op": "StridedSlice", "input": ["model_transfer/up_sampling2d_1/Shape", "model_transfer/up_sampling2d_1/strided_slice/stack", "model_transfer/up_sampling2d_1/strided_slice/stack_1", "model_transfer/up_sampling2d_1/strided_slice/stack"], "attr": {"shrink_axis_mask": {"i": "0"}, "ellipsis_mask": {"i": "0"}, "begin_mask": {"i": "0"}, "new_axis_mask": {"i": "0"}, "end_mask": {"i": "0"}, "T": {"type": "DT_INT32"}, "Index": {"type": "DT_INT32"}}}, {"name": "model_transfer/up_sampling2d_1/mul", "op": "Mul", "input": ["model_transfer/up_sampling2d_1/Const", "model_transfer/up_sampling2d_1/strided_slice"], "attr": {"T": {"type": "DT_INT32"}}}, {"name": "model_transfer/up_sampling2d_1/resize/ResizeBilinear", "op": "ResizeBilinear", "input": ["model_transfer/activation_13/Relu", "model_transfer/up_sampling2d_1/mul"], "attr": {"align_corners": {"b": false}, "half_pixel_centers": {"b": true}, "T": {"type": "DT_FLOAT"}}}, {"name": "model_transfer/separable_conv2d_14/separable_conv2d/depthwise", "op": "DepthwiseConv2dNative", "input": ["model_transfer/up_sampling2d_1/resize/ResizeBilinear", "model_transfer/separable_conv2d_14/separable_conv2d/ReadVariableOp"], "attr": {"strides": {"list": {"i": ["1", "1", "1", "1"]}}, "data_format": {"s": "TkhXQw=="}, "padding": {"s": "U0FNRQ=="}, "dilations": {"list": {"i": ["1", "1", "1", "1"]}}, "T": {"type": "DT_FLOAT"}}}, {"name": "model_transfer/separable_conv2d_14/separable_conv2d", "op": "Conv2D", "input": ["model_transfer/separable_conv2d_14/separable_conv2d/depthwise", "model_transfer/separable_conv2d_14/separable_conv2d/ReadVariableOp_1"], "device": "/device:CPU:0", "attr": {"dilations": {"list": {"i": ["1", "1", "1", "1"]}}, "T": {"type": "DT_FLOAT"}, "data_format": {"s": "TkhXQw=="}, "strides": {"list": {"i": ["1", "1", "1", "1"]}}, "use_cudnn_on_gpu": {"b": true}, "explicit_paddings": {"list": {}}, "padding": {"s": "VkFMSUQ="}}}, {"name": "model_transfer/instance_norm_with_scaling_inputs_14/Mean", "op": "Mean", "input": ["model_transfer/separable_conv2d_14/separable_conv2d", "model_transfer/instance_norm_with_scaling_inputs_15/Mean/reduction_indices"], "attr": {"T": {"type": "DT_FLOAT"}, "Tidx": {"type": "DT_INT32"}, "keep_dims": {"b": true}}}, {"name": "model_transfer/instance_norm_with_scaling_inputs_14/sub", "op": "Sub", "input": ["model_transfer/separable_conv2d_14/separable_conv2d", "model_transfer/instance_norm_with_scaling_inputs_14/Mean"], "attr": {"T": {"type": "DT_FLOAT"}}}, {"name": "model_transfer/instance_norm_with_scaling_inputs_14/reduce_std/reduce_variance/Square", "op": "Square", "input": ["model_transfer/instance_norm_with_scaling_inputs_14/sub"], "attr": {"T": {"type": "DT_FLOAT"}}}, {"name": "model_transfer/instance_norm_with_scaling_inputs_14/reduce_std/reduce_variance/Mean_1", "op": "Mean", "input": ["model_transfer/instance_norm_with_scaling_inputs_14/reduce_std/reduce_variance/Square", "model_transfer/instance_norm_with_scaling_inputs_15/Mean/reduction_indices"], "attr": {"Tidx": {"type": "DT_INT32"}, "keep_dims": {"b": true}, "T": {"type": "DT_FLOAT"}}}, {"name": "model_transfer/instance_norm_with_scaling_inputs_14/reduce_std/Sqrt", "op": "Sqrt", "input": ["model_transfer/instance_norm_with_scaling_inputs_14/reduce_std/reduce_variance/Mean_1"], "attr": {"T": {"type": "DT_FLOAT"}}}, {"name": "model_transfer/instance_norm_with_scaling_inputs_14/add", "op": "AddV2", "input": ["model_transfer/instance_norm_with_scaling_inputs_1/add/y", "model_transfer/instance_norm_with_scaling_inputs_14/reduce_std/Sqrt"], "attr": {"T": {"type": "DT_FLOAT"}}}, {"name": "model_transfer/instance_norm_with_scaling_inputs_14/truediv", "op": "RealDiv", "input": ["model_transfer/instance_norm_with_scaling_inputs_14/sub", "model_transfer/instance_norm_with_scaling_inputs_14/add"], "attr": {"T": {"type": "DT_FLOAT"}}}, {"name": "model_transfer/instance_norm_with_scaling_inputs_14/mul", "op": "Mul", "input": ["model_transfer/instance_norm_with_scaling_inputs_14/Reshape", "model_transfer/instance_norm_with_scaling_inputs_14/truediv"], "attr": {"T": {"type": "DT_FLOAT"}}}, {"name": "model_transfer/instance_norm_with_scaling_inputs_14/add_1", "op": "AddV2", "input": ["model_transfer/instance_norm_with_scaling_inputs_14/Reshape_1", "model_transfer/instance_norm_with_scaling_inputs_14/mul"], "attr": {"T": {"type": "DT_FLOAT"}}}, {"name": "model_transfer/activation_14/Relu", "op": "Relu", "input": ["model_transfer/instance_norm_with_scaling_inputs_14/add_1"], "attr": {"T": {"type": "DT_FLOAT"}}}, {"name": "model_transfer/up_sampling2d_2/Shape", "op": "Shape", "input": ["model_transfer/activation_14/Relu"], "attr": {"T": {"type": "DT_FLOAT"}, "out_type": {"type": "DT_INT32"}}}, {"name": "model_transfer/up_sampling2d_2/strided_slice", "op": "StridedSlice", "input": ["model_transfer/up_sampling2d_2/Shape", "model_transfer/up_sampling2d_1/strided_slice/stack", "model_transfer/up_sampling2d_1/strided_slice/stack_1", "model_transfer/up_sampling2d_1/strided_slice/stack"], "attr": {"end_mask": {"i": "0"}, "Index": {"type": "DT_INT32"}, "T": {"type": "DT_INT32"}, "shrink_axis_mask": {"i": "0"}, "ellipsis_mask": {"i": "0"}, "begin_mask": {"i": "0"}, "new_axis_mask": {"i": "0"}}}, {"name": "model_transfer/up_sampling2d_2/mul", "op": "Mul", "input": ["model_transfer/up_sampling2d_1/Const", "model_transfer/up_sampling2d_2/strided_slice"], "attr": {"T": {"type": "DT_INT32"}}}, {"name": "model_transfer/up_sampling2d_2/resize/ResizeBilinear", "op": "ResizeBilinear", "input": ["model_transfer/activation_14/Relu", "model_transfer/up_sampling2d_2/mul"], "attr": {"align_corners": {"b": false}, "half_pixel_centers": {"b": true}, "T": {"type": "DT_FLOAT"}}}, {"name": "model_transfer/separable_conv2d_15/separable_conv2d/depthwise", "op": "DepthwiseConv2dNative", "input": ["model_transfer/up_sampling2d_2/resize/ResizeBilinear", "model_transfer/separable_conv2d_15/separable_conv2d/ReadVariableOp"], "attr": {"strides": {"list": {"i": ["1", "1", "1", "1"]}}, "data_format": {"s": "TkhXQw=="}, "padding": {"s": "U0FNRQ=="}, "dilations": {"list": {"i": ["1", "1", "1", "1"]}}, "T": {"type": "DT_FLOAT"}}}, {"name": "model_transfer/separable_conv2d_15/separable_conv2d", "op": "Conv2D", "input": ["model_transfer/separable_conv2d_15/separable_conv2d/depthwise", "model_transfer/separable_conv2d_15/separable_conv2d/ReadVariableOp_1"], "device": "/device:CPU:0", "attr": {"data_format": {"s": "TkhXQw=="}, "strides": {"list": {"i": ["1", "1", "1", "1"]}}, "explicit_paddings": {"list": {}}, "use_cudnn_on_gpu": {"b": true}, "padding": {"s": "VkFMSUQ="}, "dilations": {"list": {"i": ["1", "1", "1", "1"]}}, "T": {"type": "DT_FLOAT"}}}, {"name": "model_transfer/instance_norm_with_scaling_inputs_15/Mean", "op": "Mean", "input": ["model_transfer/separable_conv2d_15/separable_conv2d", "model_transfer/instance_norm_with_scaling_inputs_15/Mean/reduction_indices"], "attr": {"Tidx": {"type": "DT_INT32"}, "keep_dims": {"b": true}, "T": {"type": "DT_FLOAT"}}}, {"name": "model_transfer/instance_norm_with_scaling_inputs_15/sub", "op": "Sub", "input": ["model_transfer/separable_conv2d_15/separable_conv2d", "model_transfer/instance_norm_with_scaling_inputs_15/Mean"], "attr": {"T": {"type": "DT_FLOAT"}}}, {"name": "model_transfer/instance_norm_with_scaling_inputs_15/reduce_std/reduce_variance/Square", "op": "Square", "input": ["model_transfer/instance_norm_with_scaling_inputs_15/sub"], "attr": {"T": {"type": "DT_FLOAT"}}}, {"name": "model_transfer/instance_norm_with_scaling_inputs_15/reduce_std/reduce_variance/Mean_1", "op": "Mean", "input": ["model_transfer/instance_norm_with_scaling_inputs_15/reduce_std/reduce_variance/Square", "model_transfer/instance_norm_with_scaling_inputs_15/Mean/reduction_indices"], "attr": {"Tidx": {"type": "DT_INT32"}, "keep_dims": {"b": true}, "T": {"type": "DT_FLOAT"}}}, {"name": "model_transfer/instance_norm_with_scaling_inputs_15/reduce_std/Sqrt", "op": "Sqrt", "input": ["model_transfer/instance_norm_with_scaling_inputs_15/reduce_std/reduce_variance/Mean_1"], "attr": {"T": {"type": "DT_FLOAT"}}}, {"name": "model_transfer/instance_norm_with_scaling_inputs_15/add", "op": "AddV2", "input": ["model_transfer/instance_norm_with_scaling_inputs_1/add/y", "model_transfer/instance_norm_with_scaling_inputs_15/reduce_std/Sqrt"], "attr": {"T": {"type": "DT_FLOAT"}}}, {"name": "model_transfer/instance_norm_with_scaling_inputs_15/truediv", "op": "RealDiv", "input": ["model_transfer/instance_norm_with_scaling_inputs_15/sub", "model_transfer/instance_norm_with_scaling_inputs_15/add"], "attr": {"T": {"type": "DT_FLOAT"}}}, {"name": "model_transfer/instance_norm_with_scaling_inputs_15/mul", "op": "Mul", "input": ["model_transfer/instance_norm_with_scaling_inputs_15/Reshape", "model_transfer/instance_norm_with_scaling_inputs_15/truediv"], "attr": {"T": {"type": "DT_FLOAT"}}}, {"name": "model_transfer/instance_norm_with_scaling_inputs_15/add_1", "op": "AddV2", "input": ["model_transfer/instance_norm_with_scaling_inputs_15/Reshape_1", "model_transfer/instance_norm_with_scaling_inputs_15/mul"], "attr": {"T": {"type": "DT_FLOAT"}}}, {"name": "model_transfer/activation_15/Relu", "op": "Relu", "input": ["model_transfer/instance_norm_with_scaling_inputs_15/add_1"], "attr": {"T": {"type": "DT_FLOAT"}}}, {"name": "model_transfer/conv2d_1/BiasAdd", "op": "_FusedConv2D", "input": ["model_transfer/activation_15/Relu", "model_transfer/conv2d_1/Conv2D/ReadVariableOp", "model_transfer/conv2d_1/BiasAdd/ReadVariableOp"], "device": "/device:CPU:0", "attr": {"T": {"type": "DT_FLOAT"}, "strides": {"list": {"i": ["1", "1", "1", "1"]}}, "data_format": {"s": "TkhXQw=="}, "use_cudnn_on_gpu": {"b": true}, "explicit_paddings": {"list": {}}, "num_args": {"i": "1"}, "epsilon": {"f": 0.0}, "padding": {"s": "U0FNRQ=="}, "fused_ops": {"list": {"s": ["Qmlhc0FkZA=="]}}, "dilations": {"list": {"i": ["1", "1", "1", "1"]}}}}, {"name": "model_transfer/conv2d_1/Sigmoid", "op": "Sigmoid", "input": ["model_transfer/conv2d_1/BiasAdd"], "attr": {"T": {"type": "DT_FLOAT"}}}, {"name": "model_transfer/ImgOut/mul", "op": "Mul", "input": ["model_transfer/ImgOut/mul/x", "model_transfer/conv2d_1/Sigmoid"], "attr": {"T": {"type": "DT_FLOAT"}}}, {"name": "Identity", "op": "Identity", "input": ["model_transfer/ImgOut/mul"], "attr": {"T": {"type": "DT_FLOAT"}}}], "versions": {"producer": 175}}, "weightsManifest": [{"paths": ["group1-shard1of1.bin"], "weights": [{"name": "model_transfer/ImgOut/mul/x", "shape": [], "dtype": "float32", "quantization": {"min": 255.0, "scale": 1.0, "dtype": "uint16"}}, {"name": "model_transfer/dense_30/MatMul/ReadVariableOp", "shape": [100, 32], "dtype": "float32", "quantization": {"min": -0.8348821740206114, "scale": 2.0612847789561547e-05, "dtype": "uint16"}}, {"name": "model_transfer/dense_30/BiasAdd/ReadVariableOp", "shape": [32], "dtype": "float32", "quantization": {"min": -0.33667185471488453, "scale": 6.208450518456969e-06, "dtype": "uint16"}}, {"name": "model_transfer/dense_29/MatMul/ReadVariableOp", "shape": [100, 32], "dtype": "float32", "quantization": {"min": -0.3958099030280556, "scale": 1.1381697234531158e-05, "dtype": "uint16"}}, {"name": "model_transfer/dense_29/BiasAdd/ReadVariableOp", "shape": [32], "dtype": "float32", "quantization": {"min": -0.10396840113828427, "scale": 2.8360174887693473e-06, "dtype": "uint16"}}, {"name": "model_transfer/dense_28/MatMul/ReadVariableOp", "shape": [100, 64], "dtype": "float32", "quantization": {"min": -0.9863437820446794, "scale": 3.327745553457083e-05, "dtype": "uint16"}}, {"name": "model_transfer/dense_28/BiasAdd/ReadVariableOp", "shape": [64], "dtype": "float32", "quantization": {"min": -0.2397788448529103, "scale": 9.53546666877079e-06, "dtype": "uint16"}}, {"name": "model_transfer/dense_27/MatMul/ReadVariableOp", "shape": [100, 64], "dtype": "float32", "quantization": {"min": -0.5987081491365998, "scale": 2.1175968207710528e-05, "dtype": "uint16"}}, {"name": "model_transfer/dense_27/BiasAdd/ReadVariableOp", "shape": [64], "dtype": "float32", "quantization": {"min": -0.2812460848638829, "scale": 7.155660616321059e-06, "dtype": "uint16"}}, {"name": "model_transfer/up_sampling2d_1/Const", "shape": [2], "dtype": "int32"}, {"name": "model_transfer/dense_26/MatMul/ReadVariableOp", "shape": [100, 128], "dtype": "float32", "quantization": {"min": -0.9937726030308257, "scale": 2.8299709620424472e-05, "dtype": "uint16"}}, {"name": "model_transfer/dense_26/BiasAdd/ReadVariableOp", "shape": [128], "dtype": "float32", "quantization": {"min": -0.36830404593186566, "scale": 1.0320976486811423e-05, "dtype": "uint16"}}, {"name": "model_transfer/dense_25/MatMul/ReadVariableOp", "shape": [100, 128], "dtype": "float32", "quantization": {"min": -0.9427620246825652, "scale": 3.078306095090985e-05, "dtype": "uint16"}}, {"name": "model_transfer/dense_25/BiasAdd/ReadVariableOp", "shape": [128], "dtype": "float32", "quantization": {"min": -0.2875740662550248, "scale": 1.1835297812783965e-05, "dtype": "uint16"}}, {"name": "model_transfer/dense_24/MatMul/ReadVariableOp", "shape": [100, 128], "dtype": "float32", "quantization": {"min": -0.8238456274448639, "scale": 2.234097048066124e-05, "dtype": "uint16"}}, {"name": "model_transfer/dense_24/BiasAdd/ReadVariableOp", "shape": [128], "dtype": "float32", "quantization": {"min": -0.32266754067498016, "scale": 8.099898099080735e-06, "dtype": "uint16"}}, {"name": "model_transfer/dense_23/MatMul/ReadVariableOp", "shape": [100, 128], "dtype": "float32", "quantization": {"min": -0.6201244916924624, "scale": 2.0118888222835624e-05, "dtype": "uint16"}}, {"name": "model_transfer/dense_23/BiasAdd/ReadVariableOp", "shape": [128], "dtype": "float32", "quantization": {"min": -0.22358779005653445, "scale": 7.171102025611292e-06, "dtype": "uint16"}}, {"name": "model_transfer/dense_22/MatMul/ReadVariableOp", "shape": [100, 128], "dtype": "float32", "quantization": {"min": -0.7811227918080482, "scale": 2.263599141671636e-05, "dtype": "uint16"}}, {"name": "model_transfer/dense_22/BiasAdd/ReadVariableOp", "shape": [128], "dtype": "float32", "quantization": {"min": -0.369448777779731, "scale": 1.0934642844281263e-05, "dtype": "uint16"}}, {"name": "model_transfer/dense_21/MatMul/ReadVariableOp", "shape": [100, 128], "dtype": "float32", "quantization": {"min": -0.7991751573938358, "scale": 2.621535697535955e-05, "dtype": "uint16"}}, {"name": "model_transfer/dense_21/BiasAdd/ReadVariableOp", "shape": [128], "dtype": "float32", "quantization": {"min": -0.2622058383258137, "scale": 8.19316433852494e-06, "dtype": "uint16"}}, {"name": "model_transfer/dense_20/MatMul/ReadVariableOp", "shape": [100, 128], "dtype": "float32", "quantization": {"min": -0.8672963447844381, "scale": 2.344044175093076e-05, "dtype": "uint16"}}, {"name": "model_transfer/dense_20/BiasAdd/ReadVariableOp", "shape": [128], "dtype": "float32", "quantization": {"min": -0.2916576543261405, "scale": 7.78127245947763e-06, "dtype": "uint16"}}, {"name": "model_transfer/dense_19/MatMul/ReadVariableOp", "shape": [100, 128], "dtype": "float32", "quantization": {"min": -0.7502730382391942, "scale": 2.138809653180519e-05, "dtype": "uint16"}}, {"name": "model_transfer/dense_19/BiasAdd/ReadVariableOp", "shape": [128], "dtype": "float32", "quantization": {"min": -0.18654187947041004, "scale": 6.5688386319603505e-06, "dtype": "uint16"}}, {"name": "model_transfer/dense_18/MatMul/ReadVariableOp", "shape": [100, 128], "dtype": "float32", "quantization": {"min": -0.7841914687120661, "scale": 2.4454781199116416e-05, "dtype": "uint16"}}, {"name": "model_transfer/dense_18/BiasAdd/ReadVariableOp", "shape": [128], "dtype": "float32", "quantization": {"min": -0.33034213548613567, "scale": 9.200193156746384e-06, "dtype": "uint16"}}, {"name": "model_transfer/dense_17/MatMul/ReadVariableOp", "shape": [100, 128], "dtype": "float32", "quantization": {"min": -0.7975751094580915, "scale": 2.4964789954241e-05, "dtype": "uint16"}}, {"name": "model_transfer/dense_17/BiasAdd/ReadVariableOp", "shape": [128], "dtype": "float32", "quantization": {"min": -0.313583155282986, "scale": 1.0132582243860217e-05, "dtype": "uint16"}}, {"name": "model_transfer/dense_16/MatMul/ReadVariableOp", "shape": [100, 128], "dtype": "float32", "quantization": {"min": -0.8119834959493346, "scale": 2.1460606193818972e-05, "dtype": "uint16"}}, {"name": "model_transfer/dense_16/BiasAdd/ReadVariableOp", "shape": [128], "dtype": "float32", "quantization": {"min": -0.32467381775611104, "scale": 7.735117400202769e-06, "dtype": "uint16"}}, {"name": "model_transfer/dense_15/MatMul/ReadVariableOp", "shape": [100, 128], "dtype": "float32", "quantization": {"min": -0.6944110197152172, "scale": 2.1587683642093363e-05, "dtype": "uint16"}}, {"name": "model_transfer/dense_15/BiasAdd/ReadVariableOp", "shape": [128], "dtype": "float32", "quantization": {"min": -0.25049182286322175, "scale": 6.687093164879515e-06, "dtype": "uint16"}}, {"name": "model_transfer/dense_14/MatMul/ReadVariableOp", "shape": [100, 128], "dtype": "float32", "quantization": {"min": -0.7041526778553573, "scale": 2.0380095448911966e-05, "dtype": "uint16"}}, {"name": "model_transfer/dense_14/BiasAdd/ReadVariableOp", "shape": [128], "dtype": "float32", "quantization": {"min": -0.33403393068093135, "scale": 9.141096017758507e-06, "dtype": "uint16"}}, {"name": "model_transfer/dense_13/MatMul/ReadVariableOp", "shape": [100, 128], "dtype": "float32", "quantization": {"min": -0.6942463946704452, "scale": 2.2177561802659252e-05, "dtype": "uint16"}}, {"name": "model_transfer/dense_13/BiasAdd/ReadVariableOp", "shape": [128], "dtype": "float32", "quantization": {"min": -0.23293648898542413, "scale": 7.807229152212901e-06, "dtype": "uint16"}}, {"name": "model_transfer/dense_12/MatMul/ReadVariableOp", "shape": [100, 128], "dtype": "float32", "quantization": {"min": -0.6580599468533086, "scale": 1.9312104089605534e-05, "dtype": "uint16"}}, {"name": "model_transfer/dense_12/BiasAdd/ReadVariableOp", "shape": [128], "dtype": "float32", "quantization": {"min": -0.2963531030527722, "scale": 8.37818339513661e-06, "dtype": "uint16"}}, {"name": "model_transfer/dense_11/MatMul/ReadVariableOp", "shape": [100, 128], "dtype": "float32", "quantization": {"min": -0.696009800137067, "scale": 2.243889999797108e-05, "dtype": "uint16"}}, {"name": "model_transfer/dense_11/BiasAdd/ReadVariableOp", "shape": [128], "dtype": "float32", "quantization": {"min": -0.24915798908582568, "scale": 7.614620246503031e-06, "dtype": "uint16"}}, {"name": "model_transfer/dense_10/MatMul/ReadVariableOp", "shape": [100, 128], "dtype": "float32", "quantization": {"min": -0.6288205058785501, "scale": 1.856680364587664e-05, "dtype": "uint16"}}, {"name": "model_transfer/dense_10/BiasAdd/ReadVariableOp", "shape": [128], "dtype": "float32", "quantization": {"min": -0.3373013651390557, "scale": 7.739997823241829e-06, "dtype": "uint16"}}, {"name": "model_transfer/dense_9/MatMul/ReadVariableOp", "shape": [100, 128], "dtype": "float32", "quantization": {"min": -0.6212360297386639, "scale": 1.8563754063608662e-05, "dtype": "uint16"}}, {"name": "model_transfer/dense_9/BiasAdd/ReadVariableOp", "shape": [128], "dtype": "float32", "quantization": {"min": -0.2239718351996608, "scale": 6.752241037071474e-06, "dtype": "uint16"}}, {"name": "model_transfer/dense_8/MatMul/ReadVariableOp", "shape": [100, 128], "dtype": "float32", "quantization": {"min": -0.5555941977562397, "scale": 1.780693560322553e-05, "dtype": "uint16"}}, {"name": "model_transfer/dense_8/BiasAdd/ReadVariableOp", "shape": [128], "dtype": "float32", "quantization": {"min": -0.34267655068698244, "scale": 9.805326504720797e-06, "dtype": "uint16"}}, {"name": "model_transfer/dense_7/MatMul/ReadVariableOp", "shape": [100, 128], "dtype": "float32", "quantization": {"min": -0.7218275814132068, "scale": 2.046112538730106e-05, "dtype": "uint16"}}, {"name": "model_transfer/dense_7/BiasAdd/ReadVariableOp", "shape": [128], "dtype": "float32", "quantization": {"min": -0.24176696470848455, "scale": 7.129665724225436e-06, "dtype": "uint16"}}, {"name": "model_transfer/dense_6/MatMul/ReadVariableOp", "shape": [100, 128], "dtype": "float32", "quantization": {"min": -0.6285646443873782, "scale": 2.1413253539121697e-05, "dtype": "uint16"}}, {"name": "model_transfer/dense_6/BiasAdd/ReadVariableOp", "shape": [128], "dtype": "float32", "quantization": {"min": -0.3490748808459795, "scale": 1.1922770709952164e-05, "dtype": "uint16"}}, {"name": "model_transfer/dense_5/MatMul/ReadVariableOp", "shape": [100, 128], "dtype": "float32", "quantization": {"min": -0.5393185104086496, "scale": 1.690812648238548e-05, "dtype": "uint16"}}, {"name": "model_transfer/dense_5/BiasAdd/ReadVariableOp", "shape": [128], "dtype": "float32", "quantization": {"min": -0.18975904075515673, "scale": 5.769505647770044e-06, "dtype": "uint16"}}, {"name": "model_transfer/instance_norm_with_scaling_inputs_3/Reshape/shape", "shape": [4], "dtype": "int32"}, {"name": "model_transfer/dense_4/MatMul/ReadVariableOp", "shape": [100, 64], "dtype": "float32", "quantization": {"min": -0.6253713608934066, "scale": 2.22591692789965e-05, "dtype": "uint16"}}, {"name": "model_transfer/dense_4/BiasAdd/ReadVariableOp", "shape": [64], "dtype": "float32", "quantization": {"min": -0.2477241574135381, "scale": 1.151509121989207e-05, "dtype": "uint16"}}, {"name": "model_transfer/dense_3/MatMul/ReadVariableOp", "shape": [100, 64], "dtype": "float32", "quantization": {"min": -0.5309386571939598, "scale": 1.6224748111293236e-05, "dtype": "uint16"}}, {"name": "model_transfer/dense_3/BiasAdd/ReadVariableOp", "shape": [64], "dtype": "float32", "quantization": {"min": -0.22407413102391383, "scale": 7.304065813413972e-06, "dtype": "uint16"}}, {"name": "model_transfer/instance_norm_with_scaling_inputs_2/Reshape/shape", "shape": [4], "dtype": "int32"}, {"name": "model_transfer/dense_2/MatMul/ReadVariableOp", "shape": [100, 32], "dtype": "float32", "quantization": {"min": -0.6553348333346105, "scale": 2.2808535198893584e-05, "dtype": "uint16"}}, {"name": "model_transfer/dense_2/BiasAdd/ReadVariableOp", "shape": [32], "dtype": "float32", "quantization": {"min": -0.29345918977579827, "scale": 1.2210676560387729e-05, "dtype": "uint16"}}, {"name": "model_transfer/dense_1/MatMul/ReadVariableOp", "shape": [100, 32], "dtype": "float32", "quantization": {"min": -0.5680749987568182, "scale": 1.6730231151724878e-05, "dtype": "uint16"}}, {"name": "model_transfer/dense_1/BiasAdd/ReadVariableOp", "shape": [32], "dtype": "float32", "quantization": {"min": -0.23201696101675282, "scale": 7.660865119750143e-06, "dtype": "uint16"}}, {"name": "model_transfer/instance_norm_with_scaling_inputs_1/Reshape/shape", "shape": [4], "dtype": "int32"}, {"name": "model_transfer/instance_norm_with_scaling_inputs_1/add/y", "shape": [], "dtype": "float32", "quantization": {"min": 0.0010000000474974513, "scale": 1.0, "dtype": "uint16"}}, {"name": "model_transfer/separable_conv2d_1/separable_conv2d/ReadVariableOp", "shape": [9, 9, 3, 1], "dtype": "float32", "quantization": {"min": -0.9785067697525243, "scale": 2.47792238282186e-05, "dtype": "uint16"}}, {"name": "model_transfer/separable_conv2d_1/separable_conv2d/ReadVariableOp_1", "shape": [1, 1, 3, 32], "dtype": "float32", "quantization": {"min": -0.679991730838216, "scale": 2.5087317131090793e-05, "dtype": "uint16"}}, {"name": "model_transfer/separable_conv2d_2/separable_conv2d/ReadVariableOp", "shape": [3, 3, 32, 1], "dtype": "float32", "quantization": {"min": -0.4017368460016228, "scale": 1.186394324025819e-05, "dtype": "uint16"}}, {"name": "model_transfer/separable_conv2d_2/separable_conv2d/ReadVariableOp_1", "shape": [1, 1, 32, 64], "dtype": "float32", "quantization": {"min": -0.8344292688708088, "scale": 2.4820907515938153e-05, "dtype": "uint16"}}, {"name": "model_transfer/separable_conv2d_3/separable_conv2d/ReadVariableOp", "shape": [3, 3, 64, 1], "dtype": "float32", "quantization": {"min": -0.4204684698346133, "scale": 1.2992660213664585e-05, "dtype": "uint16"}}, {"name": "model_transfer/separable_conv2d_3/separable_conv2d/ReadVariableOp_1", "shape": [1, 1, 64, 128], "dtype": "float32", "quantization": {"min": -1.04340938571535, "scale": 2.961875172349693e-05, "dtype": "uint16"}}, {"name": "model_transfer/separable_conv2d_4/separable_conv2d/ReadVariableOp", "shape": [3, 3, 128, 1], "dtype": "float32", "quantization": {"min": -0.5251060563339071, "scale": 1.536700875988139e-05, "dtype": "uint16"}}, {"name": "model_transfer/separable_conv2d_4/separable_conv2d/ReadVariableOp_1", "shape": [1, 1, 128, 128], "dtype": "float32", "quantization": {"min": -0.887866503776525, "scale": 2.5139918559801936e-05, "dtype": "uint16"}}, {"name": "model_transfer/separable_conv2d_5/separable_conv2d/ReadVariableOp", "shape": [3, 3, 128, 1], "dtype": "float32", "quantization": {"min": -0.5284809202881221, "scale": 1.551480845163732e-05, "dtype": "uint16"}}, {"name": "model_transfer/separable_conv2d_5/separable_conv2d/ReadVariableOp_1", "shape": [1, 1, 128, 128], "dtype": "float32", "quantization": {"min": -0.7648955104279557, "scale": 2.486737249026157e-05, "dtype": "uint16"}}, {"name": "model_transfer/separable_conv2d_6/separable_conv2d/ReadVariableOp", "shape": [3, 3, 128, 1], "dtype": "float32", "quantization": {"min": -0.7315195525148199, "scale": 2.1863815903963773e-05, "dtype": "uint16"}}, {"name": "model_transfer/separable_conv2d_6/separable_conv2d/ReadVariableOp_1", "shape": [1, 1, 128, 128], "dtype": "float32", "quantization": {"min": -0.754608032234457, "scale": 2.348097309127974e-05, "dtype": "uint16"}}, {"name": "model_transfer/separable_conv2d_7/separable_conv2d/ReadVariableOp", "shape": [3, 3, 128, 1], "dtype": "float32", "quantization": {"min": -0.5857898364907828, "scale": 1.724229812476549e-05, "dtype": "uint16"}}, {"name": "model_transfer/separable_conv2d_7/separable_conv2d/ReadVariableOp_1", "shape": [1, 1, 128, 128], "dtype": "float32", "quantization": {"min": -0.8336836398398202, "scale": 2.6134283380558627e-05, "dtype": "uint16"}}, {"name": "model_transfer/separable_conv2d_8/separable_conv2d/ReadVariableOp", "shape": [3, 3, 128, 1], "dtype": "float32", "quantization": {"min": -0.5868964104937263, "scale": 1.8369214725938226e-05, "dtype": "uint16"}}, {"name": "model_transfer/separable_conv2d_8/separable_conv2d/ReadVariableOp_1", "shape": [1, 1, 128, 128], "dtype": "float32", "quantization": {"min": -1.0083326846718141, "scale": 2.8587340799268945e-05, "dtype": "uint16"}}, {"name": "model_transfer/separable_conv2d_9/separable_conv2d/ReadVariableOp", "shape": [3, 3, 128, 1], "dtype": "float32", "quantization": {"min": -0.5505378029280436, "scale": 1.871240960293816e-05, "dtype": "uint16"}}, {"name": "model_transfer/separable_conv2d_9/separable_conv2d/ReadVariableOp_1", "shape": [1, 1, 128, 128], "dtype": "float32", "quantization": {"min": -0.8990903176094999, "scale": 2.8441424699781725e-05, "dtype": "uint16"}}, {"name": "model_transfer/separable_conv2d_10/separable_conv2d/ReadVariableOp", "shape": [3, 3, 128, 1], "dtype": "float32", "quantization": {"min": -0.5207813577847704, "scale": 1.767997548155793e-05, "dtype": "uint16"}}, {"name": "model_transfer/separable_conv2d_10/separable_conv2d/ReadVariableOp_1", "shape": [1, 1, 128, 128], "dtype": "float32", "quantization": {"min": -0.8094772296629609, "scale": 2.5595308596185445e-05, "dtype": "uint16"}}, {"name": "model_transfer/separable_conv2d_11/separable_conv2d/ReadVariableOp", "shape": [3, 3, 128, 1], "dtype": "float32", "quantization": {"min": -0.4324473751585371, "scale": 1.6046284792524567e-05, "dtype": "uint16"}}, {"name": "model_transfer/separable_conv2d_11/separable_conv2d/ReadVariableOp_1", "shape": [1, 1, 128, 128], "dtype": "float32", "quantization": {"min": -0.7665369188993831, "scale": 2.386552878045341e-05, "dtype": "uint16"}}, {"name": "model_transfer/separable_conv2d_12/separable_conv2d/ReadVariableOp", "shape": [3, 3, 128, 1], "dtype": "float32", "quantization": {"min": -0.5536006614946707, "scale": 1.7925741070966896e-05, "dtype": "uint16"}}, {"name": "model_transfer/separable_conv2d_12/separable_conv2d/ReadVariableOp_1", "shape": [1, 1, 128, 128], "dtype": "float32", "quantization": {"min": -0.777801451979908, "scale": 2.4207950575160537e-05, "dtype": "uint16"}}, {"name": "model_transfer/separable_conv2d_13/separable_conv2d/ReadVariableOp", "shape": [3, 3, 128, 1], "dtype": "float32", "quantization": {"min": -0.5375417138488431, "scale": 1.648799809363975e-05, "dtype": "uint16"}}, {"name": "model_transfer/separable_conv2d_13/separable_conv2d/ReadVariableOp_1", "shape": [1, 1, 128, 128], "dtype": "float32", "quantization": {"min": -0.8153990441277433, "scale": 2.3131231571522604e-05, "dtype": "uint16"}}, {"name": "model_transfer/separable_conv2d_14/separable_conv2d/ReadVariableOp", "shape": [3, 3, 128, 1], "dtype": "float32", "quantization": {"min": -0.42596110203741455, "scale": 1.3732706881082421e-05, "dtype": "uint16"}}, {"name": "model_transfer/separable_conv2d_14/separable_conv2d/ReadVariableOp_1", "shape": [1, 1, 128, 64], "dtype": "float32", "quantization": {"min": -0.8078029232948479, "scale": 2.4403447625365475e-05, "dtype": "uint16"}}, {"name": "model_transfer/up_sampling2d_1/strided_slice/stack_1", "shape": [1], "dtype": "int32"}, {"name": "model_transfer/up_sampling2d_1/strided_slice/stack", "shape": [1], "dtype": "int32"}, {"name": "model_transfer/separable_conv2d_15/separable_conv2d/ReadVariableOp", "shape": [3, 3, 64, 1], "dtype": "float32", "quantization": {"min": -0.3560282825509589, "scale": 1.1620101261495444e-05, "dtype": "uint16"}}, {"name": "model_transfer/separable_conv2d_15/separable_conv2d/ReadVariableOp_1", "shape": [1, 1, 64, 32], "dtype": "float32", "quantization": {"min": -0.7038615139432781, "scale": 2.139136621514947e-05, "dtype": "uint16"}}, {"name": "model_transfer/instance_norm_with_scaling_inputs_15/Mean/reduction_indices", "shape": [2], "dtype": "int32"}, {"name": "model_transfer/conv2d_1/Conv2D/ReadVariableOp", "shape": [9, 9, 32, 3], "dtype": "float32", "quantization": {"min": -0.5157611407049099, "scale": 1.6427606723942856e-05, "dtype": "uint16"}}, {"name": "model_transfer/conv2d_1/BiasAdd/ReadVariableOp", "shape": [3], "dtype": "float32", "quantization": {"min": -0.07712159305810928, "scale": 1.0573648458043034e-06, "dtype": "uint16"}}]}]}