{"format": "graph-model", "generatedBy": "2.1.0", "convertedBy": "TensorFlow.js Converter v1.7.2", "userDefinedMetadata": {"signature": {"outputs": {"Identity:0": {"name": "Identity:0"}}}}, "modelTopology": {"node": [{"name": "model_style/img_preprocess_1/ReverseV2/axis", "op": "Const", "attr": {"value": {"tensor": {"dtype": "DT_INT32", "tensorShape": {"dim": [{"size": "1"}]}}}, "dtype": {"type": "DT_INT32"}}}, {"name": "model_style/img_preprocess_1/Const", "op": "Const", "attr": {"value": {"tensor": {"dtype": "DT_FLOAT", "tensorShape": {"dim": [{"size": "3"}]}}}, "dtype": {"type": "DT_FLOAT"}}}, {"name": "model_style/Conv1_pad/Pad/paddings", "op": "Const", "attr": {"value": {"tensor": {"dtype": "DT_INT32", "tensorShape": {"dim": [{"size": "4"}, {"size": "2"}]}}}, "dtype": {"type": "DT_INT32"}}}, {"name": "model_style/global_average_pooling2d_1/Mean/reduction_indices", "op": "Const", "attr": {"value": {"tensor": {"dtype": "DT_INT32", "tensorShape": {"dim": [{"size": "2"}]}}}, "dtype": {"type": "DT_INT32"}}}, {"name": "model_style/Style/MatMul/ReadVariableOp", "op": "Const", "attr": {"value": {"tensor": {"dtype": "DT_FLOAT", "tensorShape": {"dim": [{"size": "160"}, {"size": "100"}]}}}, "dtype": {"type": "DT_FLOAT"}}}, {"name": "model_style/Style/BiasAdd/ReadVariableOp", "op": "Const", "attr": {"value": {"tensor": {"dtype": "DT_FLOAT", "tensorShape": {"dim": [{"size": "100"}]}}}, "dtype": {"type": "DT_FLOAT"}}}, {"name": "x1", "op": "Placeholder", "attr": {"shape": {"shape": {"dim": [{"size": "-1"}, {"size": "-1"}, {"size": "-1"}, {"size": "3"}]}}, "dtype": {"type": "DT_FLOAT"}}}, {"name": "model_style/Conv1/Conv2D_weights", "op": "Const", "attr": {"dtype": {"type": "DT_FLOAT"}, "value": {"tensor": {"dtype": "DT_FLOAT", "tensorShape": {"dim": [{"size": "3"}, {"size": "3"}, {"size": "3"}, {"size": "32"}]}}}}}, {"name": "model_style/Conv1/Conv2D_bn_offset", "op": "Const", "attr": {"value": {"tensor": {"dtype": "DT_FLOAT", "tensorShape": {"dim": [{"size": "32"}]}}}, "dtype": {"type": "DT_FLOAT"}}}, {"name": "model_style/block_12_depthwise/depthwise_weights", "op": "Const", "attr": {"value": {"tensor": {"dtype": "DT_FLOAT", "tensorShape": {"dim": [{"size": "3"}, {"size": "3"}, {"size": "576"}, {"size": "1"}]}}}, "dtype": {"type": "DT_FLOAT"}}}, {"name": "model_style/expanded_conv_depthwise/depthwise_weights", "op": "Const", "attr": {"dtype": {"type": "DT_FLOAT"}, "value": {"tensor": {"dtype": "DT_FLOAT", "tensorShape": {"dim": [{"size": "3"}, {"size": "3"}, {"size": "32"}, {"size": "1"}]}}}}}, {"name": "model_style/expanded_conv_depthwise/depthwise_bn_offset", "op": "Const", "attr": {"dtype": {"type": "DT_FLOAT"}, "value": {"tensor": {"dtype": "DT_FLOAT", "tensorShape": {"dim": [{"size": "32"}]}}}}}, {"name": "model_style/expanded_conv_project/Conv2D_weights", "op": "Const", "attr": {"value": {"tensor": {"dtype": "DT_FLOAT", "tensorShape": {"dim": [{"size": "1"}, {"size": "1"}, {"size": "32"}, {"size": "16"}]}}}, "dtype": {"type": "DT_FLOAT"}}}, {"name": "model_style/expanded_conv_project/Conv2D_bn_offset", "op": "Const", "attr": {"value": {"tensor": {"dtype": "DT_FLOAT", "tensorShape": {"dim": [{"size": "16"}]}}}, "dtype": {"type": "DT_FLOAT"}}}, {"name": "model_style/block_1_expand/Conv2D_weights", "op": "Const", "attr": {"value": {"tensor": {"dtype": "DT_FLOAT", "tensorShape": {"dim": [{"size": "1"}, {"size": "1"}, {"size": "16"}, {"size": "96"}]}}}, "dtype": {"type": "DT_FLOAT"}}}, {"name": "model_style/block_12_depthwise/depthwise_bn_offset", "op": "Const", "attr": {"value": {"tensor": {"dtype": "DT_FLOAT", "tensorShape": {"dim": [{"size": "576"}]}}}, "dtype": {"type": "DT_FLOAT"}}}, {"name": "model_style/block_1_expand/Conv2D_bn_offset", "op": "Const", "attr": {"value": {"tensor": {"dtype": "DT_FLOAT", "tensorShape": {"dim": [{"size": "96"}]}}}, "dtype": {"type": "DT_FLOAT"}}}, {"name": "model_style/block_1_depthwise/depthwise_weights", "op": "Const", "attr": {"value": {"tensor": {"dtype": "DT_FLOAT", "tensorShape": {"dim": [{"size": "3"}, {"size": "3"}, {"size": "96"}, {"size": "1"}]}}}, "dtype": {"type": "DT_FLOAT"}}}, {"name": "model_style/block_1_depthwise/depthwise_bn_offset", "op": "Const", "attr": {"value": {"tensor": {"dtype": "DT_FLOAT", "tensorShape": {"dim": [{"size": "96"}]}}}, "dtype": {"type": "DT_FLOAT"}}}, {"name": "model_style/block_1_project/Conv2D_weights", "op": "Const", "attr": {"value": {"tensor": {"dtype": "DT_FLOAT", "tensorShape": {"dim": [{"size": "1"}, {"size": "1"}, {"size": "96"}, {"size": "24"}]}}}, "dtype": {"type": "DT_FLOAT"}}}, {"name": "model_style/block_1_project/Conv2D_bn_offset", "op": "Const", "attr": {"value": {"tensor": {"dtype": "DT_FLOAT", "tensorShape": {"dim": [{"size": "24"}]}}}, "dtype": {"type": "DT_FLOAT"}}}, {"name": "model_style/block_2_expand/Conv2D_weights", "op": "Const", "attr": {"value": {"tensor": {"dtype": "DT_FLOAT", "tensorShape": {"dim": [{"size": "1"}, {"size": "1"}, {"size": "24"}, {"size": "144"}]}}}, "dtype": {"type": "DT_FLOAT"}}}, {"name": "model_style/block_12_project/Conv2D_weights", "op": "Const", "attr": {"value": {"tensor": {"dtype": "DT_FLOAT", "tensorShape": {"dim": [{"size": "1"}, {"size": "1"}, {"size": "576"}, {"size": "96"}]}}}, "dtype": {"type": "DT_FLOAT"}}}, {"name": "model_style/block_2_expand/Conv2D_bn_offset", "op": "Const", "attr": {"value": {"tensor": {"dtype": "DT_FLOAT", "tensorShape": {"dim": [{"size": "144"}]}}}, "dtype": {"type": "DT_FLOAT"}}}, {"name": "model_style/block_14_project/Conv2D_bn_offset", "op": "Const", "attr": {"value": {"tensor": {"dtype": "DT_FLOAT", "tensorShape": {"dim": [{"size": "160"}]}}}, "dtype": {"type": "DT_FLOAT"}}}, {"name": "model_style/block_2_depthwise/depthwise_weights", "op": "Const", "attr": {"value": {"tensor": {"dtype": "DT_FLOAT", "tensorShape": {"dim": [{"size": "3"}, {"size": "3"}, {"size": "144"}, {"size": "1"}]}}}, "dtype": {"type": "DT_FLOAT"}}}, {"name": "model_style/block_2_depthwise/depthwise_bn_offset", "op": "Const", "attr": {"value": {"tensor": {"dtype": "DT_FLOAT", "tensorShape": {"dim": [{"size": "144"}]}}}, "dtype": {"type": "DT_FLOAT"}}}, {"name": "model_style/block_2_project/Conv2D_weights", "op": "Const", "attr": {"value": {"tensor": {"dtype": "DT_FLOAT", "tensorShape": {"dim": [{"size": "1"}, {"size": "1"}, {"size": "144"}, {"size": "24"}]}}}, "dtype": {"type": "DT_FLOAT"}}}, {"name": "model_style/block_12_project/Conv2D_bn_offset", "op": "Const", "attr": {"value": {"tensor": {"dtype": "DT_FLOAT", "tensorShape": {"dim": [{"size": "96"}]}}}, "dtype": {"type": "DT_FLOAT"}}}, {"name": "model_style/block_2_project/Conv2D_bn_offset", "op": "Const", "attr": {"value": {"tensor": {"dtype": "DT_FLOAT", "tensorShape": {"dim": [{"size": "24"}]}}}, "dtype": {"type": "DT_FLOAT"}}}, {"name": "model_style/block_3_expand/Conv2D_weights", "op": "Const", "attr": {"value": {"tensor": {"dtype": "DT_FLOAT", "tensorShape": {"dim": [{"size": "1"}, {"size": "1"}, {"size": "24"}, {"size": "144"}]}}}, "dtype": {"type": "DT_FLOAT"}}}, {"name": "model_style/block_3_expand/Conv2D_bn_offset", "op": "Const", "attr": {"value": {"tensor": {"dtype": "DT_FLOAT", "tensorShape": {"dim": [{"size": "144"}]}}}, "dtype": {"type": "DT_FLOAT"}}}, {"name": "model_style/block_3_depthwise/depthwise_weights", "op": "Const", "attr": {"value": {"tensor": {"dtype": "DT_FLOAT", "tensorShape": {"dim": [{"size": "3"}, {"size": "3"}, {"size": "144"}, {"size": "1"}]}}}, "dtype": {"type": "DT_FLOAT"}}}, {"name": "model_style/block_3_depthwise/depthwise_bn_offset", "op": "Const", "attr": {"value": {"tensor": {"dtype": "DT_FLOAT", "tensorShape": {"dim": [{"size": "144"}]}}}, "dtype": {"type": "DT_FLOAT"}}}, {"name": "model_style/block_3_project/Conv2D_weights", "op": "Const", "attr": {"value": {"tensor": {"dtype": "DT_FLOAT", "tensorShape": {"dim": [{"size": "1"}, {"size": "1"}, {"size": "144"}, {"size": "32"}]}}}, "dtype": {"type": "DT_FLOAT"}}}, {"name": "model_style/block_13_expand/Conv2D_weights", "op": "Const", "attr": {"value": {"tensor": {"dtype": "DT_FLOAT", "tensorShape": {"dim": [{"size": "1"}, {"size": "1"}, {"size": "96"}, {"size": "576"}]}}}, "dtype": {"type": "DT_FLOAT"}}}, {"name": "model_style/block_3_project/Conv2D_bn_offset", "op": "Const", "attr": {"value": {"tensor": {"dtype": "DT_FLOAT", "tensorShape": {"dim": [{"size": "32"}]}}}, "dtype": {"type": "DT_FLOAT"}}}, {"name": "model_style/block_4_expand/Conv2D_weights", "op": "Const", "attr": {"dtype": {"type": "DT_FLOAT"}, "value": {"tensor": {"dtype": "DT_FLOAT", "tensorShape": {"dim": [{"size": "1"}, {"size": "1"}, {"size": "32"}, {"size": "192"}]}}}}}, {"name": "model_style/block_4_expand/Conv2D_bn_offset", "op": "Const", "attr": {"dtype": {"type": "DT_FLOAT"}, "value": {"tensor": {"dtype": "DT_FLOAT", "tensorShape": {"dim": [{"size": "192"}]}}}}}, {"name": "model_style/block_13_expand/Conv2D_bn_offset", "op": "Const", "attr": {"value": {"tensor": {"dtype": "DT_FLOAT", "tensorShape": {"dim": [{"size": "576"}]}}}, "dtype": {"type": "DT_FLOAT"}}}, {"name": "model_style/block_4_depthwise/depthwise_weights", "op": "Const", "attr": {"value": {"tensor": {"dtype": "DT_FLOAT", "tensorShape": {"dim": [{"size": "3"}, {"size": "3"}, {"size": "192"}, {"size": "1"}]}}}, "dtype": {"type": "DT_FLOAT"}}}, {"name": "model_style/block_4_depthwise/depthwise_bn_offset", "op": "Const", "attr": {"value": {"tensor": {"dtype": "DT_FLOAT", "tensorShape": {"dim": [{"size": "192"}]}}}, "dtype": {"type": "DT_FLOAT"}}}, {"name": "model_style/block_4_project/Conv2D_weights", "op": "Const", "attr": {"value": {"tensor": {"dtype": "DT_FLOAT", "tensorShape": {"dim": [{"size": "1"}, {"size": "1"}, {"size": "192"}, {"size": "32"}]}}}, "dtype": {"type": "DT_FLOAT"}}}, {"name": "model_style/block_4_project/Conv2D_bn_offset", "op": "Const", "attr": {"value": {"tensor": {"dtype": "DT_FLOAT", "tensorShape": {"dim": [{"size": "32"}]}}}, "dtype": {"type": "DT_FLOAT"}}}, {"name": "model_style/block_5_expand/Conv2D_weights", "op": "Const", "attr": {"value": {"tensor": {"dtype": "DT_FLOAT", "tensorShape": {"dim": [{"size": "1"}, {"size": "1"}, {"size": "32"}, {"size": "192"}]}}}, "dtype": {"type": "DT_FLOAT"}}}, {"name": "model_style/block_5_expand/Conv2D_bn_offset", "op": "Const", "attr": {"value": {"tensor": {"dtype": "DT_FLOAT", "tensorShape": {"dim": [{"size": "192"}]}}}, "dtype": {"type": "DT_FLOAT"}}}, {"name": "model_style/block_5_depthwise/depthwise_weights", "op": "Const", "attr": {"dtype": {"type": "DT_FLOAT"}, "value": {"tensor": {"dtype": "DT_FLOAT", "tensorShape": {"dim": [{"size": "3"}, {"size": "3"}, {"size": "192"}, {"size": "1"}]}}}}}, {"name": "model_style/block_5_depthwise/depthwise_bn_offset", "op": "Const", "attr": {"value": {"tensor": {"dtype": "DT_FLOAT", "tensorShape": {"dim": [{"size": "192"}]}}}, "dtype": {"type": "DT_FLOAT"}}}, {"name": "model_style/block_5_project/Conv2D_weights", "op": "Const", "attr": {"dtype": {"type": "DT_FLOAT"}, "value": {"tensor": {"dtype": "DT_FLOAT", "tensorShape": {"dim": [{"size": "1"}, {"size": "1"}, {"size": "192"}, {"size": "32"}]}}}}}, {"name": "model_style/block_13_depthwise/depthwise_weights", "op": "Const", "attr": {"value": {"tensor": {"dtype": "DT_FLOAT", "tensorShape": {"dim": [{"size": "3"}, {"size": "3"}, {"size": "576"}, {"size": "1"}]}}}, "dtype": {"type": "DT_FLOAT"}}}, {"name": "model_style/block_5_project/Conv2D_bn_offset", "op": "Const", "attr": {"value": {"tensor": {"dtype": "DT_FLOAT", "tensorShape": {"dim": [{"size": "32"}]}}}, "dtype": {"type": "DT_FLOAT"}}}, {"name": "model_style/block_6_expand/Conv2D_weights", "op": "Const", "attr": {"value": {"tensor": {"dtype": "DT_FLOAT", "tensorShape": {"dim": [{"size": "1"}, {"size": "1"}, {"size": "32"}, {"size": "192"}]}}}, "dtype": {"type": "DT_FLOAT"}}}, {"name": "model_style/block_6_expand/Conv2D_bn_offset", "op": "Const", "attr": {"value": {"tensor": {"dtype": "DT_FLOAT", "tensorShape": {"dim": [{"size": "192"}]}}}, "dtype": {"type": "DT_FLOAT"}}}, {"name": "model_style/block_13_depthwise/depthwise_bn_offset", "op": "Const", "attr": {"dtype": {"type": "DT_FLOAT"}, "value": {"tensor": {"dtype": "DT_FLOAT", "tensorShape": {"dim": [{"size": "576"}]}}}}}, {"name": "model_style/block_6_depthwise/depthwise_weights", "op": "Const", "attr": {"value": {"tensor": {"dtype": "DT_FLOAT", "tensorShape": {"dim": [{"size": "3"}, {"size": "3"}, {"size": "192"}, {"size": "1"}]}}}, "dtype": {"type": "DT_FLOAT"}}}, {"name": "model_style/block_6_depthwise/depthwise_bn_offset", "op": "Const", "attr": {"value": {"tensor": {"dtype": "DT_FLOAT", "tensorShape": {"dim": [{"size": "192"}]}}}, "dtype": {"type": "DT_FLOAT"}}}, {"name": "model_style/block_6_project/Conv2D_weights", "op": "Const", "attr": {"value": {"tensor": {"dtype": "DT_FLOAT", "tensorShape": {"dim": [{"size": "1"}, {"size": "1"}, {"size": "192"}, {"size": "64"}]}}}, "dtype": {"type": "DT_FLOAT"}}}, {"name": "model_style/block_6_project/Conv2D_bn_offset", "op": "Const", "attr": {"value": {"tensor": {"dtype": "DT_FLOAT", "tensorShape": {"dim": [{"size": "64"}]}}}, "dtype": {"type": "DT_FLOAT"}}}, {"name": "model_style/block_7_expand/Conv2D_weights", "op": "Const", "attr": {"value": {"tensor": {"dtype": "DT_FLOAT", "tensorShape": {"dim": [{"size": "1"}, {"size": "1"}, {"size": "64"}, {"size": "384"}]}}}, "dtype": {"type": "DT_FLOAT"}}}, {"name": "model_style/block_7_expand/Conv2D_bn_offset", "op": "Const", "attr": {"value": {"tensor": {"dtype": "DT_FLOAT", "tensorShape": {"dim": [{"size": "384"}]}}}, "dtype": {"type": "DT_FLOAT"}}}, {"name": "model_style/block_13_project/Conv2D_weights", "op": "Const", "attr": {"value": {"tensor": {"dtype": "DT_FLOAT", "tensorShape": {"dim": [{"size": "1"}, {"size": "1"}, {"size": "576"}, {"size": "160"}]}}}, "dtype": {"type": "DT_FLOAT"}}}, {"name": "model_style/block_7_depthwise/depthwise_weights", "op": "Const", "attr": {"value": {"tensor": {"dtype": "DT_FLOAT", "tensorShape": {"dim": [{"size": "3"}, {"size": "3"}, {"size": "384"}, {"size": "1"}]}}}, "dtype": {"type": "DT_FLOAT"}}}, {"name": "model_style/block_7_depthwise/depthwise_bn_offset", "op": "Const", "attr": {"value": {"tensor": {"dtype": "DT_FLOAT", "tensorShape": {"dim": [{"size": "384"}]}}}, "dtype": {"type": "DT_FLOAT"}}}, {"name": "model_style/block_7_project/Conv2D_weights", "op": "Const", "attr": {"value": {"tensor": {"dtype": "DT_FLOAT", "tensorShape": {"dim": [{"size": "1"}, {"size": "1"}, {"size": "384"}, {"size": "64"}]}}}, "dtype": {"type": "DT_FLOAT"}}}, {"name": "model_style/block_7_project/Conv2D_bn_offset", "op": "Const", "attr": {"value": {"tensor": {"dtype": "DT_FLOAT", "tensorShape": {"dim": [{"size": "64"}]}}}, "dtype": {"type": "DT_FLOAT"}}}, {"name": "model_style/block_8_expand/Conv2D_weights", "op": "Const", "attr": {"value": {"tensor": {"dtype": "DT_FLOAT", "tensorShape": {"dim": [{"size": "1"}, {"size": "1"}, {"size": "64"}, {"size": "384"}]}}}, "dtype": {"type": "DT_FLOAT"}}}, {"name": "model_style/block_13_project/Conv2D_bn_offset", "op": "Const", "attr": {"dtype": {"type": "DT_FLOAT"}, "value": {"tensor": {"dtype": "DT_FLOAT", "tensorShape": {"dim": [{"size": "160"}]}}}}}, {"name": "model_style/block_8_expand/Conv2D_bn_offset", "op": "Const", "attr": {"value": {"tensor": {"dtype": "DT_FLOAT", "tensorShape": {"dim": [{"size": "384"}]}}}, "dtype": {"type": "DT_FLOAT"}}}, {"name": "model_style/block_8_depthwise/depthwise_weights", "op": "Const", "attr": {"value": {"tensor": {"dtype": "DT_FLOAT", "tensorShape": {"dim": [{"size": "3"}, {"size": "3"}, {"size": "384"}, {"size": "1"}]}}}, "dtype": {"type": "DT_FLOAT"}}}, {"name": "model_style/block_8_depthwise/depthwise_bn_offset", "op": "Const", "attr": {"value": {"tensor": {"dtype": "DT_FLOAT", "tensorShape": {"dim": [{"size": "384"}]}}}, "dtype": {"type": "DT_FLOAT"}}}, {"name": "model_style/block_8_project/Conv2D_weights", "op": "Const", "attr": {"value": {"tensor": {"dtype": "DT_FLOAT", "tensorShape": {"dim": [{"size": "1"}, {"size": "1"}, {"size": "384"}, {"size": "64"}]}}}, "dtype": {"type": "DT_FLOAT"}}}, {"name": "model_style/block_14_expand/Conv2D_weights", "op": "Const", "attr": {"value": {"tensor": {"dtype": "DT_FLOAT", "tensorShape": {"dim": [{"size": "1"}, {"size": "1"}, {"size": "160"}, {"size": "960"}]}}}, "dtype": {"type": "DT_FLOAT"}}}, {"name": "model_style/block_8_project/Conv2D_bn_offset", "op": "Const", "attr": {"value": {"tensor": {"dtype": "DT_FLOAT", "tensorShape": {"dim": [{"size": "64"}]}}}, "dtype": {"type": "DT_FLOAT"}}}, {"name": "model_style/block_9_expand/Conv2D_weights", "op": "Const", "attr": {"value": {"tensor": {"dtype": "DT_FLOAT", "tensorShape": {"dim": [{"size": "1"}, {"size": "1"}, {"size": "64"}, {"size": "384"}]}}}, "dtype": {"type": "DT_FLOAT"}}}, {"name": "model_style/block_9_expand/Conv2D_bn_offset", "op": "Const", "attr": {"value": {"tensor": {"dtype": "DT_FLOAT", "tensorShape": {"dim": [{"size": "384"}]}}}, "dtype": {"type": "DT_FLOAT"}}}, {"name": "model_style/block_14_expand/Conv2D_bn_offset", "op": "Const", "attr": {"value": {"tensor": {"dtype": "DT_FLOAT", "tensorShape": {"dim": [{"size": "960"}]}}}, "dtype": {"type": "DT_FLOAT"}}}, {"name": "model_style/block_9_depthwise/depthwise_weights", "op": "Const", "attr": {"value": {"tensor": {"dtype": "DT_FLOAT", "tensorShape": {"dim": [{"size": "3"}, {"size": "3"}, {"size": "384"}, {"size": "1"}]}}}, "dtype": {"type": "DT_FLOAT"}}}, {"name": "model_style/block_9_depthwise/depthwise_bn_offset", "op": "Const", "attr": {"value": {"tensor": {"dtype": "DT_FLOAT", "tensorShape": {"dim": [{"size": "384"}]}}}, "dtype": {"type": "DT_FLOAT"}}}, {"name": "model_style/block_9_project/Conv2D_weights", "op": "Const", "attr": {"value": {"tensor": {"dtype": "DT_FLOAT", "tensorShape": {"dim": [{"size": "1"}, {"size": "1"}, {"size": "384"}, {"size": "64"}]}}}, "dtype": {"type": "DT_FLOAT"}}}, {"name": "model_style/block_9_project/Conv2D_bn_offset", "op": "Const", "attr": {"value": {"tensor": {"dtype": "DT_FLOAT", "tensorShape": {"dim": [{"size": "64"}]}}}, "dtype": {"type": "DT_FLOAT"}}}, {"name": "model_style/block_10_expand/Conv2D_weights", "op": "Const", "attr": {"value": {"tensor": {"dtype": "DT_FLOAT", "tensorShape": {"dim": [{"size": "1"}, {"size": "1"}, {"size": "64"}, {"size": "384"}]}}}, "dtype": {"type": "DT_FLOAT"}}}, {"name": "model_style/block_10_expand/Conv2D_bn_offset", "op": "Const", "attr": {"value": {"tensor": {"dtype": "DT_FLOAT", "tensorShape": {"dim": [{"size": "384"}]}}}, "dtype": {"type": "DT_FLOAT"}}}, {"name": "model_style/block_14_depthwise/depthwise_weights", "op": "Const", "attr": {"value": {"tensor": {"dtype": "DT_FLOAT", "tensorShape": {"dim": [{"size": "3"}, {"size": "3"}, {"size": "960"}, {"size": "1"}]}}}, "dtype": {"type": "DT_FLOAT"}}}, {"name": "model_style/block_10_depthwise/depthwise_weights", "op": "Const", "attr": {"value": {"tensor": {"dtype": "DT_FLOAT", "tensorShape": {"dim": [{"size": "3"}, {"size": "3"}, {"size": "384"}, {"size": "1"}]}}}, "dtype": {"type": "DT_FLOAT"}}}, {"name": "model_style/block_10_depthwise/depthwise_bn_offset", "op": "Const", "attr": {"value": {"tensor": {"dtype": "DT_FLOAT", "tensorShape": {"dim": [{"size": "384"}]}}}, "dtype": {"type": "DT_FLOAT"}}}, {"name": "model_style/block_10_project/Conv2D_weights", "op": "Const", "attr": {"value": {"tensor": {"dtype": "DT_FLOAT", "tensorShape": {"dim": [{"size": "1"}, {"size": "1"}, {"size": "384"}, {"size": "96"}]}}}, "dtype": {"type": "DT_FLOAT"}}}, {"name": "model_style/block_10_project/Conv2D_bn_offset", "op": "Const", "attr": {"value": {"tensor": {"dtype": "DT_FLOAT", "tensorShape": {"dim": [{"size": "96"}]}}}, "dtype": {"type": "DT_FLOAT"}}}, {"name": "model_style/block_11_expand/Conv2D_weights", "op": "Const", "attr": {"value": {"tensor": {"dtype": "DT_FLOAT", "tensorShape": {"dim": [{"size": "1"}, {"size": "1"}, {"size": "96"}, {"size": "576"}]}}}, "dtype": {"type": "DT_FLOAT"}}}, {"name": "model_style/block_14_depthwise/depthwise_bn_offset", "op": "Const", "attr": {"value": {"tensor": {"dtype": "DT_FLOAT", "tensorShape": {"dim": [{"size": "960"}]}}}, "dtype": {"type": "DT_FLOAT"}}}, {"name": "model_style/block_11_expand/Conv2D_bn_offset", "op": "Const", "attr": {"value": {"tensor": {"dtype": "DT_FLOAT", "tensorShape": {"dim": [{"size": "576"}]}}}, "dtype": {"type": "DT_FLOAT"}}}, {"name": "model_style/block_11_depthwise/depthwise_weights", "op": "Const", "attr": {"value": {"tensor": {"dtype": "DT_FLOAT", "tensorShape": {"dim": [{"size": "3"}, {"size": "3"}, {"size": "576"}, {"size": "1"}]}}}, "dtype": {"type": "DT_FLOAT"}}}, {"name": "model_style/block_11_depthwise/depthwise_bn_offset", "op": "Const", "attr": {"value": {"tensor": {"dtype": "DT_FLOAT", "tensorShape": {"dim": [{"size": "576"}]}}}, "dtype": {"type": "DT_FLOAT"}}}, {"name": "model_style/block_11_project/Conv2D_weights", "op": "Const", "attr": {"value": {"tensor": {"dtype": "DT_FLOAT", "tensorShape": {"dim": [{"size": "1"}, {"size": "1"}, {"size": "576"}, {"size": "96"}]}}}, "dtype": {"type": "DT_FLOAT"}}}, {"name": "model_style/block_11_project/Conv2D_bn_offset", "op": "Const", "attr": {"value": {"tensor": {"dtype": "DT_FLOAT", "tensorShape": {"dim": [{"size": "96"}]}}}, "dtype": {"type": "DT_FLOAT"}}}, {"name": "model_style/block_12_expand/Conv2D_weights", "op": "Const", "attr": {"value": {"tensor": {"dtype": "DT_FLOAT", "tensorShape": {"dim": [{"size": "1"}, {"size": "1"}, {"size": "96"}, {"size": "576"}]}}}, "dtype": {"type": "DT_FLOAT"}}}, {"name": "model_style/block_14_project/Conv2D_weights", "op": "Const", "attr": {"value": {"tensor": {"dtype": "DT_FLOAT", "tensorShape": {"dim": [{"size": "1"}, {"size": "1"}, {"size": "960"}, {"size": "160"}]}}}, "dtype": {"type": "DT_FLOAT"}}}, {"name": "model_style/block_12_expand/Conv2D_bn_offset", "op": "Const", "attr": {"value": {"tensor": {"dtype": "DT_FLOAT", "tensorShape": {"dim": [{"size": "576"}]}}}, "dtype": {"type": "DT_FLOAT"}}}, {"name": "model_style/img_preprocess_1/ReverseV2", "op": "ReverseV2", "input": ["x1", "model_style/img_preprocess_1/ReverseV2/axis"], "attr": {"Tidx": {"type": "DT_INT32"}, "T": {"type": "DT_FLOAT"}}}, {"name": "model_style/img_preprocess_1/sub", "op": "Sub", "input": ["model_style/img_preprocess_1/ReverseV2", "model_style/img_preprocess_1/Const"], "attr": {"T": {"type": "DT_FLOAT"}}}, {"name": "model_style/Conv1_pad/Pad", "op": "Pad", "input": ["model_style/img_preprocess_1/sub", "model_style/Conv1_pad/Pad/paddings"], "attr": {"T": {"type": "DT_FLOAT"}, "Tpaddings": {"type": "DT_INT32"}}}, {"name": "model_style/Conv1_relu/Relu6", "op": "_FusedConv2D", "input": ["model_style/Conv1_pad/Pad", "model_style/Conv1/Conv2D_weights", "model_style/Conv1/Conv2D_bn_offset"], "device": "/device:CPU:0", "attr": {"explicit_paddings": {"list": {}}, "use_cudnn_on_gpu": {"b": true}, "num_args": {"i": "1"}, "epsilon": {"f": 0.0}, "padding": {"s": "VkFMSUQ="}, "fused_ops": {"list": {"s": ["Qmlhc0FkZA==", "UmVsdTY="]}}, "dilations": {"list": {"i": ["1", "1", "1", "1"]}}, "T": {"type": "DT_FLOAT"}, "strides": {"list": {"i": ["1", "2", "2", "1"]}}, "data_format": {"s": "TkhXQw=="}}}, {"name": "model_style/expanded_conv_depthwise/depthwise", "op": "FusedDepthwiseConv2dNative", "input": ["model_style/Conv1_relu/Relu6", "model_style/expanded_conv_depthwise/depthwise_weights", "model_style/expanded_conv_depthwise/depthwise_bn_offset"], "attr": {"dilations": {"list": {"i": ["1", "1", "1", "1"]}}, "T": {"type": "DT_FLOAT"}, "strides": {"list": {"i": ["1", "1", "1", "1"]}}, "data_format": {"s": "TkhXQw=="}, "num_args": {"i": "1"}, "padding": {"s": "U0FNRQ=="}, "fused_ops": {"list": {"s": ["Qmlhc0FkZA==", "UmVsdTY="]}}}}, {"name": "model_style/expanded_conv_project_BN/FusedBatchNormV3", "op": "_FusedConv2D", "input": ["model_style/expanded_conv_depthwise/depthwise", "model_style/expanded_conv_project/Conv2D_weights", "model_style/expanded_conv_project/Conv2D_bn_offset"], "device": "/device:CPU:0", "attr": {"dilations": {"list": {"i": ["1", "1", "1", "1"]}}, "T": {"type": "DT_FLOAT"}, "strides": {"list": {"i": ["1", "1", "1", "1"]}}, "data_format": {"s": "TkhXQw=="}, "explicit_paddings": {"list": {}}, "use_cudnn_on_gpu": {"b": true}, "num_args": {"i": "1"}, "epsilon": {"f": 0.0}, "padding": {"s": "U0FNRQ=="}, "fused_ops": {"list": {"s": ["Qmlhc0FkZA=="]}}}}, {"name": "model_style/block_1_expand_relu/Relu6", "op": "_FusedConv2D", "input": ["model_style/expanded_conv_project_BN/FusedBatchNormV3", "model_style/block_1_expand/Conv2D_weights", "model_style/block_1_expand/Conv2D_bn_offset"], "device": "/device:CPU:0", "attr": {"padding": {"s": "U0FNRQ=="}, "fused_ops": {"list": {"s": ["Qmlhc0FkZA==", "UmVsdTY="]}}, "dilations": {"list": {"i": ["1", "1", "1", "1"]}}, "T": {"type": "DT_FLOAT"}, "strides": {"list": {"i": ["1", "1", "1", "1"]}}, "data_format": {"s": "TkhXQw=="}, "use_cudnn_on_gpu": {"b": true}, "explicit_paddings": {"list": {}}, "num_args": {"i": "1"}, "epsilon": {"f": 0.0}}}, {"name": "model_style/block_1_pad/Pad", "op": "Pad", "input": ["model_style/block_1_expand_relu/Relu6", "model_style/Conv1_pad/Pad/paddings"], "attr": {"T": {"type": "DT_FLOAT"}, "Tpaddings": {"type": "DT_INT32"}}}, {"name": "model_style/block_1_depthwise/depthwise", "op": "FusedDepthwiseConv2dNative", "input": ["model_style/block_1_pad/Pad", "model_style/block_1_depthwise/depthwise_weights", "model_style/block_1_depthwise/depthwise_bn_offset"], "attr": {"padding": {"s": "VkFMSUQ="}, "fused_ops": {"list": {"s": ["Qmlhc0FkZA==", "UmVsdTY="]}}, "dilations": {"list": {"i": ["1", "1", "1", "1"]}}, "T": {"type": "DT_FLOAT"}, "data_format": {"s": "TkhXQw=="}, "strides": {"list": {"i": ["1", "2", "2", "1"]}}, "num_args": {"i": "1"}}}, {"name": "model_style/block_1_project_BN/FusedBatchNormV3", "op": "_FusedConv2D", "input": ["model_style/block_1_depthwise/depthwise", "model_style/block_1_project/Conv2D_weights", "model_style/block_1_project/Conv2D_bn_offset"], "device": "/device:CPU:0", "attr": {"dilations": {"list": {"i": ["1", "1", "1", "1"]}}, "T": {"type": "DT_FLOAT"}, "strides": {"list": {"i": ["1", "1", "1", "1"]}}, "data_format": {"s": "TkhXQw=="}, "use_cudnn_on_gpu": {"b": true}, "explicit_paddings": {"list": {}}, "num_args": {"i": "1"}, "epsilon": {"f": 0.0}, "padding": {"s": "U0FNRQ=="}, "fused_ops": {"list": {"s": ["Qmlhc0FkZA=="]}}}}, {"name": "model_style/block_2_expand_relu/Relu6", "op": "_FusedConv2D", "input": ["model_style/block_1_project_BN/FusedBatchNormV3", "model_style/block_2_expand/Conv2D_weights", "model_style/block_2_expand/Conv2D_bn_offset"], "device": "/device:CPU:0", "attr": {"num_args": {"i": "1"}, "epsilon": {"f": 0.0}, "padding": {"s": "U0FNRQ=="}, "fused_ops": {"list": {"s": ["Qmlhc0FkZA==", "UmVsdTY="]}}, "dilations": {"list": {"i": ["1", "1", "1", "1"]}}, "T": {"type": "DT_FLOAT"}, "data_format": {"s": "TkhXQw=="}, "strides": {"list": {"i": ["1", "1", "1", "1"]}}, "explicit_paddings": {"list": {}}, "use_cudnn_on_gpu": {"b": true}}}, {"name": "model_style/block_2_depthwise/depthwise", "op": "FusedDepthwiseConv2dNative", "input": ["model_style/block_2_expand_relu/Relu6", "model_style/block_2_depthwise/depthwise_weights", "model_style/block_2_depthwise/depthwise_bn_offset"], "attr": {"dilations": {"list": {"i": ["1", "1", "1", "1"]}}, "T": {"type": "DT_FLOAT"}, "strides": {"list": {"i": ["1", "1", "1", "1"]}}, "data_format": {"s": "TkhXQw=="}, "num_args": {"i": "1"}, "padding": {"s": "U0FNRQ=="}, "fused_ops": {"list": {"s": ["Qmlhc0FkZA==", "UmVsdTY="]}}}}, {"name": "model_style/block_2_project_BN/FusedBatchNormV3", "op": "_FusedConv2D", "input": ["model_style/block_2_depthwise/depthwise", "model_style/block_2_project/Conv2D_weights", "model_style/block_2_project/Conv2D_bn_offset"], "device": "/device:CPU:0", "attr": {"dilations": {"list": {"i": ["1", "1", "1", "1"]}}, "T": {"type": "DT_FLOAT"}, "strides": {"list": {"i": ["1", "1", "1", "1"]}}, "data_format": {"s": "TkhXQw=="}, "explicit_paddings": {"list": {}}, "use_cudnn_on_gpu": {"b": true}, "num_args": {"i": "1"}, "epsilon": {"f": 0.0}, "padding": {"s": "U0FNRQ=="}, "fused_ops": {"list": {"s": ["Qmlhc0FkZA=="]}}}}, {"name": "model_style/block_2_add/add", "op": "AddV2", "input": ["model_style/block_1_project_BN/FusedBatchNormV3", "model_style/block_2_project_BN/FusedBatchNormV3"], "attr": {"T": {"type": "DT_FLOAT"}}}, {"name": "model_style/block_3_expand_relu/Relu6", "op": "_FusedConv2D", "input": ["model_style/block_2_add/add", "model_style/block_3_expand/Conv2D_weights", "model_style/block_3_expand/Conv2D_bn_offset"], "device": "/device:CPU:0", "attr": {"data_format": {"s": "TkhXQw=="}, "strides": {"list": {"i": ["1", "1", "1", "1"]}}, "explicit_paddings": {"list": {}}, "use_cudnn_on_gpu": {"b": true}, "num_args": {"i": "1"}, "epsilon": {"f": 0.0}, "padding": {"s": "U0FNRQ=="}, "fused_ops": {"list": {"s": ["Qmlhc0FkZA==", "UmVsdTY="]}}, "dilations": {"list": {"i": ["1", "1", "1", "1"]}}, "T": {"type": "DT_FLOAT"}}}, {"name": "model_style/block_3_pad/Pad", "op": "Pad", "input": ["model_style/block_3_expand_relu/Relu6", "model_style/Conv1_pad/Pad/paddings"], "attr": {"T": {"type": "DT_FLOAT"}, "Tpaddings": {"type": "DT_INT32"}}}, {"name": "model_style/block_3_depthwise/depthwise", "op": "FusedDepthwiseConv2dNative", "input": ["model_style/block_3_pad/Pad", "model_style/block_3_depthwise/depthwise_weights", "model_style/block_3_depthwise/depthwise_bn_offset"], "attr": {"dilations": {"list": {"i": ["1", "1", "1", "1"]}}, "T": {"type": "DT_FLOAT"}, "data_format": {"s": "TkhXQw=="}, "strides": {"list": {"i": ["1", "2", "2", "1"]}}, "num_args": {"i": "1"}, "padding": {"s": "VkFMSUQ="}, "fused_ops": {"list": {"s": ["Qmlhc0FkZA==", "UmVsdTY="]}}}}, {"name": "model_style/block_3_project_BN/FusedBatchNormV3", "op": "_FusedConv2D", "input": ["model_style/block_3_depthwise/depthwise", "model_style/block_3_project/Conv2D_weights", "model_style/block_3_project/Conv2D_bn_offset"], "device": "/device:CPU:0", "attr": {"strides": {"list": {"i": ["1", "1", "1", "1"]}}, "data_format": {"s": "TkhXQw=="}, "use_cudnn_on_gpu": {"b": true}, "explicit_paddings": {"list": {}}, "num_args": {"i": "1"}, "epsilon": {"f": 0.0}, "padding": {"s": "U0FNRQ=="}, "fused_ops": {"list": {"s": ["Qmlhc0FkZA=="]}}, "dilations": {"list": {"i": ["1", "1", "1", "1"]}}, "T": {"type": "DT_FLOAT"}}}, {"name": "model_style/block_4_expand_relu/Relu6", "op": "_FusedConv2D", "input": ["model_style/block_3_project_BN/FusedBatchNormV3", "model_style/block_4_expand/Conv2D_weights", "model_style/block_4_expand/Conv2D_bn_offset"], "device": "/device:CPU:0", "attr": {"dilations": {"list": {"i": ["1", "1", "1", "1"]}}, "T": {"type": "DT_FLOAT"}, "strides": {"list": {"i": ["1", "1", "1", "1"]}}, "data_format": {"s": "TkhXQw=="}, "use_cudnn_on_gpu": {"b": true}, "explicit_paddings": {"list": {}}, "num_args": {"i": "1"}, "epsilon": {"f": 0.0}, "padding": {"s": "U0FNRQ=="}, "fused_ops": {"list": {"s": ["Qmlhc0FkZA==", "UmVsdTY="]}}}}, {"name": "model_style/block_4_depthwise/depthwise", "op": "FusedDepthwiseConv2dNative", "input": ["model_style/block_4_expand_relu/Relu6", "model_style/block_4_depthwise/depthwise_weights", "model_style/block_4_depthwise/depthwise_bn_offset"], "attr": {"dilations": {"list": {"i": ["1", "1", "1", "1"]}}, "T": {"type": "DT_FLOAT"}, "data_format": {"s": "TkhXQw=="}, "strides": {"list": {"i": ["1", "1", "1", "1"]}}, "num_args": {"i": "1"}, "padding": {"s": "U0FNRQ=="}, "fused_ops": {"list": {"s": ["Qmlhc0FkZA==", "UmVsdTY="]}}}}, {"name": "model_style/block_4_project_BN/FusedBatchNormV3", "op": "_FusedConv2D", "input": ["model_style/block_4_depthwise/depthwise", "model_style/block_4_project/Conv2D_weights", "model_style/block_4_project/Conv2D_bn_offset"], "device": "/device:CPU:0", "attr": {"dilations": {"list": {"i": ["1", "1", "1", "1"]}}, "T": {"type": "DT_FLOAT"}, "strides": {"list": {"i": ["1", "1", "1", "1"]}}, "data_format": {"s": "TkhXQw=="}, "explicit_paddings": {"list": {}}, "use_cudnn_on_gpu": {"b": true}, "num_args": {"i": "1"}, "epsilon": {"f": 0.0}, "padding": {"s": "U0FNRQ=="}, "fused_ops": {"list": {"s": ["Qmlhc0FkZA=="]}}}}, {"name": "model_style/block_4_add/add", "op": "AddV2", "input": ["model_style/block_3_project_BN/FusedBatchNormV3", "model_style/block_4_project_BN/FusedBatchNormV3"], "attr": {"T": {"type": "DT_FLOAT"}}}, {"name": "model_style/block_5_expand_relu/Relu6", "op": "_FusedConv2D", "input": ["model_style/block_4_add/add", "model_style/block_5_expand/Conv2D_weights", "model_style/block_5_expand/Conv2D_bn_offset"], "device": "/device:CPU:0", "attr": {"dilations": {"list": {"i": ["1", "1", "1", "1"]}}, "T": {"type": "DT_FLOAT"}, "data_format": {"s": "TkhXQw=="}, "strides": {"list": {"i": ["1", "1", "1", "1"]}}, "use_cudnn_on_gpu": {"b": true}, "explicit_paddings": {"list": {}}, "num_args": {"i": "1"}, "epsilon": {"f": 0.0}, "padding": {"s": "U0FNRQ=="}, "fused_ops": {"list": {"s": ["Qmlhc0FkZA==", "UmVsdTY="]}}}}, {"name": "model_style/block_5_depthwise/depthwise", "op": "FusedDepthwiseConv2dNative", "input": ["model_style/block_5_expand_relu/Relu6", "model_style/block_5_depthwise/depthwise_weights", "model_style/block_5_depthwise/depthwise_bn_offset"], "attr": {"strides": {"list": {"i": ["1", "1", "1", "1"]}}, "data_format": {"s": "TkhXQw=="}, "num_args": {"i": "1"}, "padding": {"s": "U0FNRQ=="}, "fused_ops": {"list": {"s": ["Qmlhc0FkZA==", "UmVsdTY="]}}, "dilations": {"list": {"i": ["1", "1", "1", "1"]}}, "T": {"type": "DT_FLOAT"}}}, {"name": "model_style/block_5_project_BN/FusedBatchNormV3", "op": "_FusedConv2D", "input": ["model_style/block_5_depthwise/depthwise", "model_style/block_5_project/Conv2D_weights", "model_style/block_5_project/Conv2D_bn_offset"], "device": "/device:CPU:0", "attr": {"dilations": {"list": {"i": ["1", "1", "1", "1"]}}, "T": {"type": "DT_FLOAT"}, "strides": {"list": {"i": ["1", "1", "1", "1"]}}, "data_format": {"s": "TkhXQw=="}, "use_cudnn_on_gpu": {"b": true}, "explicit_paddings": {"list": {}}, "num_args": {"i": "1"}, "epsilon": {"f": 0.0}, "padding": {"s": "U0FNRQ=="}, "fused_ops": {"list": {"s": ["Qmlhc0FkZA=="]}}}}, {"name": "model_style/block_5_add/add", "op": "AddV2", "input": ["model_style/block_4_add/add", "model_style/block_5_project_BN/FusedBatchNormV3"], "attr": {"T": {"type": "DT_FLOAT"}}}, {"name": "model_style/block_6_expand_relu/Relu6", "op": "_FusedConv2D", "input": ["model_style/block_5_add/add", "model_style/block_6_expand/Conv2D_weights", "model_style/block_6_expand/Conv2D_bn_offset"], "device": "/device:CPU:0", "attr": {"data_format": {"s": "TkhXQw=="}, "strides": {"list": {"i": ["1", "1", "1", "1"]}}, "use_cudnn_on_gpu": {"b": true}, "explicit_paddings": {"list": {}}, "num_args": {"i": "1"}, "epsilon": {"f": 0.0}, "padding": {"s": "U0FNRQ=="}, "fused_ops": {"list": {"s": ["Qmlhc0FkZA==", "UmVsdTY="]}}, "dilations": {"list": {"i": ["1", "1", "1", "1"]}}, "T": {"type": "DT_FLOAT"}}}, {"name": "model_style/block_6_pad/Pad", "op": "Pad", "input": ["model_style/block_6_expand_relu/Relu6", "model_style/Conv1_pad/Pad/paddings"], "attr": {"T": {"type": "DT_FLOAT"}, "Tpaddings": {"type": "DT_INT32"}}}, {"name": "model_style/block_6_depthwise/depthwise", "op": "FusedDepthwiseConv2dNative", "input": ["model_style/block_6_pad/Pad", "model_style/block_6_depthwise/depthwise_weights", "model_style/block_6_depthwise/depthwise_bn_offset"], "attr": {"num_args": {"i": "1"}, "padding": {"s": "VkFMSUQ="}, "fused_ops": {"list": {"s": ["Qmlhc0FkZA==", "UmVsdTY="]}}, "dilations": {"list": {"i": ["1", "1", "1", "1"]}}, "T": {"type": "DT_FLOAT"}, "strides": {"list": {"i": ["1", "2", "2", "1"]}}, "data_format": {"s": "TkhXQw=="}}}, {"name": "model_style/block_6_project_BN/FusedBatchNormV3", "op": "_FusedConv2D", "input": ["model_style/block_6_depthwise/depthwise", "model_style/block_6_project/Conv2D_weights", "model_style/block_6_project/Conv2D_bn_offset"], "device": "/device:CPU:0", "attr": {"data_format": {"s": "TkhXQw=="}, "strides": {"list": {"i": ["1", "1", "1", "1"]}}, "explicit_paddings": {"list": {}}, "use_cudnn_on_gpu": {"b": true}, "num_args": {"i": "1"}, "epsilon": {"f": 0.0}, "padding": {"s": "U0FNRQ=="}, "fused_ops": {"list": {"s": ["Qmlhc0FkZA=="]}}, "dilations": {"list": {"i": ["1", "1", "1", "1"]}}, "T": {"type": "DT_FLOAT"}}}, {"name": "model_style/block_7_expand_relu/Relu6", "op": "_FusedConv2D", "input": ["model_style/block_6_project_BN/FusedBatchNormV3", "model_style/block_7_expand/Conv2D_weights", "model_style/block_7_expand/Conv2D_bn_offset"], "device": "/device:CPU:0", "attr": {"T": {"type": "DT_FLOAT"}, "data_format": {"s": "TkhXQw=="}, "strides": {"list": {"i": ["1", "1", "1", "1"]}}, "explicit_paddings": {"list": {}}, "use_cudnn_on_gpu": {"b": true}, "num_args": {"i": "1"}, "epsilon": {"f": 0.0}, "padding": {"s": "U0FNRQ=="}, "fused_ops": {"list": {"s": ["Qmlhc0FkZA==", "UmVsdTY="]}}, "dilations": {"list": {"i": ["1", "1", "1", "1"]}}}}, {"name": "model_style/block_7_depthwise/depthwise", "op": "FusedDepthwiseConv2dNative", "input": ["model_style/block_7_expand_relu/Relu6", "model_style/block_7_depthwise/depthwise_weights", "model_style/block_7_depthwise/depthwise_bn_offset"], "attr": {"T": {"type": "DT_FLOAT"}, "strides": {"list": {"i": ["1", "1", "1", "1"]}}, "data_format": {"s": "TkhXQw=="}, "num_args": {"i": "1"}, "padding": {"s": "U0FNRQ=="}, "fused_ops": {"list": {"s": ["Qmlhc0FkZA==", "UmVsdTY="]}}, "dilations": {"list": {"i": ["1", "1", "1", "1"]}}}}, {"name": "model_style/block_7_project_BN/FusedBatchNormV3", "op": "_FusedConv2D", "input": ["model_style/block_7_depthwise/depthwise", "model_style/block_7_project/Conv2D_weights", "model_style/block_7_project/Conv2D_bn_offset"], "device": "/device:CPU:0", "attr": {"num_args": {"i": "1"}, "epsilon": {"f": 0.0}, "padding": {"s": "U0FNRQ=="}, "fused_ops": {"list": {"s": ["Qmlhc0FkZA=="]}}, "dilations": {"list": {"i": ["1", "1", "1", "1"]}}, "T": {"type": "DT_FLOAT"}, "strides": {"list": {"i": ["1", "1", "1", "1"]}}, "data_format": {"s": "TkhXQw=="}, "use_cudnn_on_gpu": {"b": true}, "explicit_paddings": {"list": {}}}}, {"name": "model_style/block_7_add/add", "op": "AddV2", "input": ["model_style/block_6_project_BN/FusedBatchNormV3", "model_style/block_7_project_BN/FusedBatchNormV3"], "attr": {"T": {"type": "DT_FLOAT"}}}, {"name": "model_style/block_8_expand_relu/Relu6", "op": "_FusedConv2D", "input": ["model_style/block_7_add/add", "model_style/block_8_expand/Conv2D_weights", "model_style/block_8_expand/Conv2D_bn_offset"], "device": "/device:CPU:0", "attr": {"dilations": {"list": {"i": ["1", "1", "1", "1"]}}, "T": {"type": "DT_FLOAT"}, "data_format": {"s": "TkhXQw=="}, "strides": {"list": {"i": ["1", "1", "1", "1"]}}, "explicit_paddings": {"list": {}}, "use_cudnn_on_gpu": {"b": true}, "num_args": {"i": "1"}, "epsilon": {"f": 0.0}, "padding": {"s": "U0FNRQ=="}, "fused_ops": {"list": {"s": ["Qmlhc0FkZA==", "UmVsdTY="]}}}}, {"name": "model_style/block_8_depthwise/depthwise", "op": "FusedDepthwiseConv2dNative", "input": ["model_style/block_8_expand_relu/Relu6", "model_style/block_8_depthwise/depthwise_weights", "model_style/block_8_depthwise/depthwise_bn_offset"], "attr": {"padding": {"s": "U0FNRQ=="}, "fused_ops": {"list": {"s": ["Qmlhc0FkZA==", "UmVsdTY="]}}, "dilations": {"list": {"i": ["1", "1", "1", "1"]}}, "T": {"type": "DT_FLOAT"}, "strides": {"list": {"i": ["1", "1", "1", "1"]}}, "data_format": {"s": "TkhXQw=="}, "num_args": {"i": "1"}}}, {"name": "model_style/block_8_project_BN/FusedBatchNormV3", "op": "_FusedConv2D", "input": ["model_style/block_8_depthwise/depthwise", "model_style/block_8_project/Conv2D_weights", "model_style/block_8_project/Conv2D_bn_offset"], "device": "/device:CPU:0", "attr": {"dilations": {"list": {"i": ["1", "1", "1", "1"]}}, "T": {"type": "DT_FLOAT"}, "data_format": {"s": "TkhXQw=="}, "strides": {"list": {"i": ["1", "1", "1", "1"]}}, "explicit_paddings": {"list": {}}, "use_cudnn_on_gpu": {"b": true}, "num_args": {"i": "1"}, "epsilon": {"f": 0.0}, "padding": {"s": "U0FNRQ=="}, "fused_ops": {"list": {"s": ["Qmlhc0FkZA=="]}}}}, {"name": "model_style/block_8_add/add", "op": "AddV2", "input": ["model_style/block_7_add/add", "model_style/block_8_project_BN/FusedBatchNormV3"], "attr": {"T": {"type": "DT_FLOAT"}}}, {"name": "model_style/block_9_expand_relu/Relu6", "op": "_FusedConv2D", "input": ["model_style/block_8_add/add", "model_style/block_9_expand/Conv2D_weights", "model_style/block_9_expand/Conv2D_bn_offset"], "device": "/device:CPU:0", "attr": {"dilations": {"list": {"i": ["1", "1", "1", "1"]}}, "T": {"type": "DT_FLOAT"}, "data_format": {"s": "TkhXQw=="}, "strides": {"list": {"i": ["1", "1", "1", "1"]}}, "use_cudnn_on_gpu": {"b": true}, "explicit_paddings": {"list": {}}, "num_args": {"i": "1"}, "epsilon": {"f": 0.0}, "padding": {"s": "U0FNRQ=="}, "fused_ops": {"list": {"s": ["Qmlhc0FkZA==", "UmVsdTY="]}}}}, {"name": "model_style/block_9_depthwise/depthwise", "op": "FusedDepthwiseConv2dNative", "input": ["model_style/block_9_expand_relu/Relu6", "model_style/block_9_depthwise/depthwise_weights", "model_style/block_9_depthwise/depthwise_bn_offset"], "attr": {"dilations": {"list": {"i": ["1", "1", "1", "1"]}}, "T": {"type": "DT_FLOAT"}, "data_format": {"s": "TkhXQw=="}, "strides": {"list": {"i": ["1", "1", "1", "1"]}}, "num_args": {"i": "1"}, "padding": {"s": "U0FNRQ=="}, "fused_ops": {"list": {"s": ["Qmlhc0FkZA==", "UmVsdTY="]}}}}, {"name": "model_style/block_9_project_BN/FusedBatchNormV3", "op": "_FusedConv2D", "input": ["model_style/block_9_depthwise/depthwise", "model_style/block_9_project/Conv2D_weights", "model_style/block_9_project/Conv2D_bn_offset"], "device": "/device:CPU:0", "attr": {"explicit_paddings": {"list": {}}, "use_cudnn_on_gpu": {"b": true}, "num_args": {"i": "1"}, "epsilon": {"f": 0.0}, "padding": {"s": "U0FNRQ=="}, "fused_ops": {"list": {"s": ["Qmlhc0FkZA=="]}}, "dilations": {"list": {"i": ["1", "1", "1", "1"]}}, "T": {"type": "DT_FLOAT"}, "data_format": {"s": "TkhXQw=="}, "strides": {"list": {"i": ["1", "1", "1", "1"]}}}}, {"name": "model_style/block_9_add/add", "op": "AddV2", "input": ["model_style/block_8_add/add", "model_style/block_9_project_BN/FusedBatchNormV3"], "attr": {"T": {"type": "DT_FLOAT"}}}, {"name": "model_style/block_10_expand_relu/Relu6", "op": "_FusedConv2D", "input": ["model_style/block_9_add/add", "model_style/block_10_expand/Conv2D_weights", "model_style/block_10_expand/Conv2D_bn_offset"], "device": "/device:CPU:0", "attr": {"epsilon": {"f": 0.0}, "padding": {"s": "U0FNRQ=="}, "fused_ops": {"list": {"s": ["Qmlhc0FkZA==", "UmVsdTY="]}}, "dilations": {"list": {"i": ["1", "1", "1", "1"]}}, "T": {"type": "DT_FLOAT"}, "strides": {"list": {"i": ["1", "1", "1", "1"]}}, "data_format": {"s": "TkhXQw=="}, "explicit_paddings": {"list": {}}, "use_cudnn_on_gpu": {"b": true}, "num_args": {"i": "1"}}}, {"name": "model_style/block_10_depthwise/depthwise", "op": "FusedDepthwiseConv2dNative", "input": ["model_style/block_10_expand_relu/Relu6", "model_style/block_10_depthwise/depthwise_weights", "model_style/block_10_depthwise/depthwise_bn_offset"], "attr": {"num_args": {"i": "1"}, "padding": {"s": "U0FNRQ=="}, "fused_ops": {"list": {"s": ["Qmlhc0FkZA==", "UmVsdTY="]}}, "dilations": {"list": {"i": ["1", "1", "1", "1"]}}, "T": {"type": "DT_FLOAT"}, "strides": {"list": {"i": ["1", "1", "1", "1"]}}, "data_format": {"s": "TkhXQw=="}}}, {"name": "model_style/block_10_project_BN/FusedBatchNormV3", "op": "_FusedConv2D", "input": ["model_style/block_10_depthwise/depthwise", "model_style/block_10_project/Conv2D_weights", "model_style/block_10_project/Conv2D_bn_offset"], "device": "/device:CPU:0", "attr": {"dilations": {"list": {"i": ["1", "1", "1", "1"]}}, "T": {"type": "DT_FLOAT"}, "data_format": {"s": "TkhXQw=="}, "strides": {"list": {"i": ["1", "1", "1", "1"]}}, "explicit_paddings": {"list": {}}, "use_cudnn_on_gpu": {"b": true}, "num_args": {"i": "1"}, "epsilon": {"f": 0.0}, "padding": {"s": "U0FNRQ=="}, "fused_ops": {"list": {"s": ["Qmlhc0FkZA=="]}}}}, {"name": "model_style/block_11_expand_relu/Relu6", "op": "_FusedConv2D", "input": ["model_style/block_10_project_BN/FusedBatchNormV3", "model_style/block_11_expand/Conv2D_weights", "model_style/block_11_expand/Conv2D_bn_offset"], "device": "/device:CPU:0", "attr": {"dilations": {"list": {"i": ["1", "1", "1", "1"]}}, "T": {"type": "DT_FLOAT"}, "data_format": {"s": "TkhXQw=="}, "strides": {"list": {"i": ["1", "1", "1", "1"]}}, "use_cudnn_on_gpu": {"b": true}, "explicit_paddings": {"list": {}}, "num_args": {"i": "1"}, "epsilon": {"f": 0.0}, "padding": {"s": "U0FNRQ=="}, "fused_ops": {"list": {"s": ["Qmlhc0FkZA==", "UmVsdTY="]}}}}, {"name": "model_style/block_11_depthwise/depthwise", "op": "FusedDepthwiseConv2dNative", "input": ["model_style/block_11_expand_relu/Relu6", "model_style/block_11_depthwise/depthwise_weights", "model_style/block_11_depthwise/depthwise_bn_offset"], "attr": {"dilations": {"list": {"i": ["1", "1", "1", "1"]}}, "T": {"type": "DT_FLOAT"}, "strides": {"list": {"i": ["1", "1", "1", "1"]}}, "data_format": {"s": "TkhXQw=="}, "num_args": {"i": "1"}, "padding": {"s": "U0FNRQ=="}, "fused_ops": {"list": {"s": ["Qmlhc0FkZA==", "UmVsdTY="]}}}}, {"name": "model_style/block_11_project_BN/FusedBatchNormV3", "op": "_FusedConv2D", "input": ["model_style/block_11_depthwise/depthwise", "model_style/block_11_project/Conv2D_weights", "model_style/block_11_project/Conv2D_bn_offset"], "device": "/device:CPU:0", "attr": {"padding": {"s": "U0FNRQ=="}, "fused_ops": {"list": {"s": ["Qmlhc0FkZA=="]}}, "dilations": {"list": {"i": ["1", "1", "1", "1"]}}, "T": {"type": "DT_FLOAT"}, "strides": {"list": {"i": ["1", "1", "1", "1"]}}, "data_format": {"s": "TkhXQw=="}, "use_cudnn_on_gpu": {"b": true}, "explicit_paddings": {"list": {}}, "num_args": {"i": "1"}, "epsilon": {"f": 0.0}}}, {"name": "model_style/block_11_add/add", "op": "AddV2", "input": ["model_style/block_10_project_BN/FusedBatchNormV3", "model_style/block_11_project_BN/FusedBatchNormV3"], "attr": {"T": {"type": "DT_FLOAT"}}}, {"name": "model_style/block_12_expand_relu/Relu6", "op": "_FusedConv2D", "input": ["model_style/block_11_add/add", "model_style/block_12_expand/Conv2D_weights", "model_style/block_12_expand/Conv2D_bn_offset"], "device": "/device:CPU:0", "attr": {"dilations": {"list": {"i": ["1", "1", "1", "1"]}}, "T": {"type": "DT_FLOAT"}, "data_format": {"s": "TkhXQw=="}, "strides": {"list": {"i": ["1", "1", "1", "1"]}}, "explicit_paddings": {"list": {}}, "use_cudnn_on_gpu": {"b": true}, "num_args": {"i": "1"}, "epsilon": {"f": 0.0}, "padding": {"s": "U0FNRQ=="}, "fused_ops": {"list": {"s": ["Qmlhc0FkZA==", "UmVsdTY="]}}}}, {"name": "model_style/block_12_depthwise/depthwise", "op": "FusedDepthwiseConv2dNative", "input": ["model_style/block_12_expand_relu/Relu6", "model_style/block_12_depthwise/depthwise_weights", "model_style/block_12_depthwise/depthwise_bn_offset"], "attr": {"padding": {"s": "U0FNRQ=="}, "fused_ops": {"list": {"s": ["Qmlhc0FkZA==", "UmVsdTY="]}}, "dilations": {"list": {"i": ["1", "1", "1", "1"]}}, "T": {"type": "DT_FLOAT"}, "data_format": {"s": "TkhXQw=="}, "strides": {"list": {"i": ["1", "1", "1", "1"]}}, "num_args": {"i": "1"}}}, {"name": "model_style/block_12_project_BN/FusedBatchNormV3", "op": "_FusedConv2D", "input": ["model_style/block_12_depthwise/depthwise", "model_style/block_12_project/Conv2D_weights", "model_style/block_12_project/Conv2D_bn_offset"], "device": "/device:CPU:0", "attr": {"dilations": {"list": {"i": ["1", "1", "1", "1"]}}, "T": {"type": "DT_FLOAT"}, "data_format": {"s": "TkhXQw=="}, "strides": {"list": {"i": ["1", "1", "1", "1"]}}, "explicit_paddings": {"list": {}}, "use_cudnn_on_gpu": {"b": true}, "num_args": {"i": "1"}, "epsilon": {"f": 0.0}, "padding": {"s": "U0FNRQ=="}, "fused_ops": {"list": {"s": ["Qmlhc0FkZA=="]}}}}, {"name": "model_style/block_12_add/add", "op": "AddV2", "input": ["model_style/block_11_add/add", "model_style/block_12_project_BN/FusedBatchNormV3"], "attr": {"T": {"type": "DT_FLOAT"}}}, {"name": "model_style/block_13_expand_relu/Relu6", "op": "_FusedConv2D", "input": ["model_style/block_12_add/add", "model_style/block_13_expand/Conv2D_weights", "model_style/block_13_expand/Conv2D_bn_offset"], "device": "/device:CPU:0", "attr": {"epsilon": {"f": 0.0}, "padding": {"s": "U0FNRQ=="}, "fused_ops": {"list": {"s": ["Qmlhc0FkZA==", "UmVsdTY="]}}, "dilations": {"list": {"i": ["1", "1", "1", "1"]}}, "T": {"type": "DT_FLOAT"}, "data_format": {"s": "TkhXQw=="}, "strides": {"list": {"i": ["1", "1", "1", "1"]}}, "explicit_paddings": {"list": {}}, "use_cudnn_on_gpu": {"b": true}, "num_args": {"i": "1"}}}, {"name": "model_style/block_13_pad/Pad", "op": "Pad", "input": ["model_style/block_13_expand_relu/Relu6", "model_style/Conv1_pad/Pad/paddings"], "attr": {"T": {"type": "DT_FLOAT"}, "Tpaddings": {"type": "DT_INT32"}}}, {"name": "model_style/block_13_depthwise/depthwise", "op": "FusedDepthwiseConv2dNative", "input": ["model_style/block_13_pad/Pad", "model_style/block_13_depthwise/depthwise_weights", "model_style/block_13_depthwise/depthwise_bn_offset"], "attr": {"dilations": {"list": {"i": ["1", "1", "1", "1"]}}, "T": {"type": "DT_FLOAT"}, "strides": {"list": {"i": ["1", "2", "2", "1"]}}, "data_format": {"s": "TkhXQw=="}, "num_args": {"i": "1"}, "padding": {"s": "VkFMSUQ="}, "fused_ops": {"list": {"s": ["Qmlhc0FkZA==", "UmVsdTY="]}}}}, {"name": "model_style/block_13_project_BN/FusedBatchNormV3", "op": "_FusedConv2D", "input": ["model_style/block_13_depthwise/depthwise", "model_style/block_13_project/Conv2D_weights", "model_style/block_13_project/Conv2D_bn_offset"], "device": "/device:CPU:0", "attr": {"data_format": {"s": "TkhXQw=="}, "strides": {"list": {"i": ["1", "1", "1", "1"]}}, "use_cudnn_on_gpu": {"b": true}, "explicit_paddings": {"list": {}}, "num_args": {"i": "1"}, "epsilon": {"f": 0.0}, "padding": {"s": "U0FNRQ=="}, "fused_ops": {"list": {"s": ["Qmlhc0FkZA=="]}}, "dilations": {"list": {"i": ["1", "1", "1", "1"]}}, "T": {"type": "DT_FLOAT"}}}, {"name": "model_style/block_14_expand_relu/Relu6", "op": "_FusedConv2D", "input": ["model_style/block_13_project_BN/FusedBatchNormV3", "model_style/block_14_expand/Conv2D_weights", "model_style/block_14_expand/Conv2D_bn_offset"], "device": "/device:CPU:0", "attr": {"dilations": {"list": {"i": ["1", "1", "1", "1"]}}, "T": {"type": "DT_FLOAT"}, "strides": {"list": {"i": ["1", "1", "1", "1"]}}, "data_format": {"s": "TkhXQw=="}, "explicit_paddings": {"list": {}}, "use_cudnn_on_gpu": {"b": true}, "num_args": {"i": "1"}, "epsilon": {"f": 0.0}, "padding": {"s": "U0FNRQ=="}, "fused_ops": {"list": {"s": ["Qmlhc0FkZA==", "UmVsdTY="]}}}}, {"name": "model_style/block_14_depthwise/depthwise", "op": "FusedDepthwiseConv2dNative", "input": ["model_style/block_14_expand_relu/Relu6", "model_style/block_14_depthwise/depthwise_weights", "model_style/block_14_depthwise/depthwise_bn_offset"], "attr": {"dilations": {"list": {"i": ["1", "1", "1", "1"]}}, "T": {"type": "DT_FLOAT"}, "data_format": {"s": "TkhXQw=="}, "strides": {"list": {"i": ["1", "1", "1", "1"]}}, "num_args": {"i": "1"}, "padding": {"s": "U0FNRQ=="}, "fused_ops": {"list": {"s": ["Qmlhc0FkZA==", "UmVsdTY="]}}}}, {"name": "model_style/block_14_project_BN/FusedBatchNormV3", "op": "_FusedConv2D", "input": ["model_style/block_14_depthwise/depthwise", "model_style/block_14_project/Conv2D_weights", "model_style/block_14_project/Conv2D_bn_offset"], "device": "/device:CPU:0", "attr": {"dilations": {"list": {"i": ["1", "1", "1", "1"]}}, "T": {"type": "DT_FLOAT"}, "data_format": {"s": "TkhXQw=="}, "strides": {"list": {"i": ["1", "1", "1", "1"]}}, "use_cudnn_on_gpu": {"b": true}, "explicit_paddings": {"list": {}}, "num_args": {"i": "1"}, "epsilon": {"f": 0.0}, "padding": {"s": "U0FNRQ=="}, "fused_ops": {"list": {"s": ["Qmlhc0FkZA=="]}}}}, {"name": "model_style/block_14_add/add", "op": "AddV2", "input": ["model_style/block_13_project_BN/FusedBatchNormV3", "model_style/block_14_project_BN/FusedBatchNormV3"], "attr": {"T": {"type": "DT_FLOAT"}}}, {"name": "model_style/global_average_pooling2d_1/Mean", "op": "Mean", "input": ["model_style/block_14_add/add", "model_style/global_average_pooling2d_1/Mean/reduction_indices"], "attr": {"keep_dims": {"b": false}, "Tidx": {"type": "DT_INT32"}, "T": {"type": "DT_FLOAT"}}}, {"name": "model_style/Style/BiasAdd", "op": "_FusedMatMul", "input": ["model_style/global_average_pooling2d_1/Mean", "model_style/Style/MatMul/ReadVariableOp", "model_style/Style/BiasAdd/ReadVariableOp"], "device": "/device:CPU:0", "attr": {"transpose_a": {"b": false}, "transpose_b": {"b": false}, "T": {"type": "DT_FLOAT"}, "num_args": {"i": "1"}, "epsilon": {"f": 0.0}, "fused_ops": {"list": {"s": ["Qmlhc0FkZA=="]}}}}, {"name": "model_style/Style/Sigmoid", "op": "Sigmoid", "input": ["model_style/Style/BiasAdd"], "attr": {"T": {"type": "DT_FLOAT"}}}, {"name": "Identity", "op": "Identity", "input": ["model_style/Style/Sigmoid"], "attr": {"T": {"type": "DT_FLOAT"}}}], "versions": {"producer": 175}}, "weightsManifest": [{"paths": ["group1-shard1of1.bin"], "weights": [{"name": "model_style/img_preprocess_1/ReverseV2/axis", "shape": [1], "dtype": "int32"}, {"name": "model_style/img_preprocess_1/Const", "shape": [3], "dtype": "float32", "quantization": {"min": 103.93900299072266, "scale": 0.0003012283102838655, "dtype": "uint16"}}, {"name": "model_style/Conv1_pad/Pad/paddings", "shape": [4, 2], "dtype": "int32"}, {"name": "model_style/global_average_pooling2d_1/Mean/reduction_indices", "shape": [2], "dtype": "int32"}, {"name": "model_style/Style/MatMul/ReadVariableOp", "shape": [160, 100], "dtype": "float32", "quantization": {"min": -0.6474151002757744, "scale": 1.990086992117836e-05, "dtype": "uint16"}}, {"name": "model_style/Style/BiasAdd/ReadVariableOp", "shape": [100], "dtype": "float32", "quantization": {"min": -0.336787034912805, "scale": 6.861442321587584e-06, "dtype": "uint16"}}, {"name": "model_style/Conv1/Conv2D_weights", "shape": [3, 3, 3, 32], "dtype": "float32", "quantization": {"min": -0.03912344265487885, "scale": 9.672289217256013e-07, "dtype": "uint16"}}, {"name": "model_style/Conv1/Conv2D_bn_offset", "shape": [32], "dtype": "float32", "quantization": {"min": -5.688861381000772, "scale": 0.0001606614527662677, "dtype": "uint16"}}, {"name": "model_style/block_12_depthwise/depthwise_weights", "shape": [3, 3, 576, 1], "dtype": "float32", "quantization": {"min": -22.14800093733692, "scale": 0.0007431965684821624, "dtype": "uint16"}}, {"name": "model_style/expanded_conv_depthwise/depthwise_weights", "shape": [3, 3, 32, 1], "dtype": "float32", "quantization": {"min": -56.44487465541004, "scale": 0.0013320953120008034, "dtype": "uint16"}}, {"name": "model_style/expanded_conv_depthwise/depthwise_bn_offset", "shape": [32], "dtype": "float32", "quantization": {"min": -4.503740839620945, "scale": 0.00012382098918486088, "dtype": "uint16"}}, {"name": "model_style/expanded_conv_project/Conv2D_weights", "shape": [1, 1, 32, 16], "dtype": "float32", "quantization": {"min": -4.438728829264013, "scale": 0.00012110798693798295, "dtype": "uint16"}}, {"name": "model_style/expanded_conv_project/Conv2D_bn_offset", "shape": [16], "dtype": "float32", "quantization": {"min": -13.672731469648332, "scale": 0.0004944572352686363, "dtype": "uint16"}}, {"name": "model_style/block_1_expand/Conv2D_weights", "shape": [1, 1, 16, 96], "dtype": "float32", "quantization": {"min": -1.1448508627892922, "scale": 3.53720219609866e-05, "dtype": "uint16"}}, {"name": "model_style/block_12_depthwise/depthwise_bn_offset", "shape": [576], "dtype": "float32", "quantization": {"min": -10.327270143892651, "scale": 0.0006163326655462312, "dtype": "uint16"}}, {"name": "model_style/block_1_expand/Conv2D_bn_offset", "shape": [96], "dtype": "float32", "quantization": {"min": -2.024152819799451, "scale": 0.000116043846803844, "dtype": "uint16"}}, {"name": "model_style/block_1_depthwise/depthwise_weights", "shape": [3, 3, 96, 1], "dtype": "float32", "quantization": {"min": -16.72822925360696, "scale": 0.0006147598123408532, "dtype": "uint16"}}, {"name": "model_style/block_1_depthwise/depthwise_bn_offset", "shape": [96], "dtype": "float32", "quantization": {"min": -12.773841434966839, "scale": 0.00035123849084268694, "dtype": "uint16"}}, {"name": "model_style/block_1_project/Conv2D_weights", "shape": [1, 1, 96, 24], "dtype": "float32", "quantization": {"min": -3.4169649993617517, "scale": 8.258924901171662e-05, "dtype": "uint16"}}, {"name": "model_style/block_1_project/Conv2D_bn_offset", "shape": [24], "dtype": "float32", "quantization": {"min": -14.459684221042577, "scale": 0.0004328469203449254, "dtype": "uint16"}}, {"name": "model_style/block_2_expand/Conv2D_weights", "shape": [1, 1, 24, 144], "dtype": "float32", "quantization": {"min": -0.4701329527125348, "scale": 1.4551595664000706e-05, "dtype": "uint16"}}, {"name": "model_style/block_12_project/Conv2D_weights", "shape": [1, 1, 576, 96], "dtype": "float32", "quantization": {"min": -0.3989604742351291, "scale": 1.4154059468376524e-05, "dtype": "uint16"}}, {"name": "model_style/block_2_expand/Conv2D_bn_offset", "shape": [144], "dtype": "float32", "quantization": {"min": -2.5005853999586014, "scale": 0.00011460586644477754, "dtype": "uint16"}}, {"name": "model_style/block_14_project/Conv2D_bn_offset", "shape": [160], "dtype": "float32", "quantization": {"min": -3.7137050109696514, "scale": 0.00011810160632754496, "dtype": "uint16"}}, {"name": "model_style/block_2_depthwise/depthwise_weights", "shape": [3, 3, 144, 1], "dtype": "float32", "quantization": {"min": -8.641403022583338, "scale": 0.0006581920193909162, "dtype": "uint16"}}, {"name": "model_style/block_2_depthwise/depthwise_bn_offset", "shape": [144], "dtype": "float32", "quantization": {"min": -3.7796382412190495, "scale": 0.00015095004757454569, "dtype": "uint16"}}, {"name": "model_style/block_2_project/Conv2D_weights", "shape": [1, 1, 144, 24], "dtype": "float32", "quantization": {"min": -2.561409200719413, "scale": 7.40248887555463e-05, "dtype": "uint16"}}, {"name": "model_style/block_12_project/Conv2D_bn_offset", "shape": [96], "dtype": "float32", "quantization": {"min": -2.1593941439386817, "scale": 5.058906276065788e-05, "dtype": "uint16"}}, {"name": "model_style/block_2_project/Conv2D_bn_offset", "shape": [24], "dtype": "float32", "quantization": {"min": -15.446030440170068, "scale": 0.000546800851039722, "dtype": "uint16"}}, {"name": "model_style/block_3_expand/Conv2D_weights", "shape": [1, 1, 24, 144], "dtype": "float32", "quantization": {"min": -0.38426676616521727, "scale": 1.1233242696597791e-05, "dtype": "uint16"}}, {"name": "model_style/block_3_expand/Conv2D_bn_offset", "shape": [144], "dtype": "float32", "quantization": {"min": -2.583302023755137, "scale": 0.0001016008032626106, "dtype": "uint16"}}, {"name": "model_style/block_3_depthwise/depthwise_weights", "shape": [3, 3, 144, 1], "dtype": "float32", "quantization": {"min": -3.5147471202432117, "scale": 0.00011783381789738539, "dtype": "uint16"}}, {"name": "model_style/block_3_depthwise/depthwise_bn_offset", "shape": [144], "dtype": "float32", "quantization": {"min": -2.1593815877743734, "scale": 0.0001457662743198578, "dtype": "uint16"}}, {"name": "model_style/block_3_project/Conv2D_weights", "shape": [1, 1, 144, 32], "dtype": "float32", "quantization": {"min": -1.3277869904824378, "scale": 4.9531353395845774e-05, "dtype": "uint16"}}, {"name": "model_style/block_13_expand/Conv2D_weights", "shape": [1, 1, 96, 576], "dtype": "float32", "quantization": {"min": -0.1372423543622276, "scale": 4.294863225230092e-06, "dtype": "uint16"}}, {"name": "model_style/block_3_project/Conv2D_bn_offset", "shape": [32], "dtype": "float32", "quantization": {"min": -12.877155847586545, "scale": 0.0003014244949225567, "dtype": "uint16"}}, {"name": "model_style/block_4_expand/Conv2D_weights", "shape": [1, 1, 32, 192], "dtype": "float32", "quantization": {"min": -0.1785725114931183, "scale": 5.438149389198718e-06, "dtype": "uint16"}}, {"name": "model_style/block_4_expand/Conv2D_bn_offset", "shape": [192], "dtype": "float32", "quantization": {"min": -2.9519651256237345, "scale": 9.183564975185835e-05, "dtype": "uint16"}}, {"name": "model_style/block_13_expand/Conv2D_bn_offset", "shape": [576], "dtype": "float32", "quantization": {"min": -3.0224075435255124, "scale": 8.275127432716878e-05, "dtype": "uint16"}}, {"name": "model_style/block_4_depthwise/depthwise_weights", "shape": [3, 3, 192, 1], "dtype": "float32", "quantization": {"min": -9.694409623440375, "scale": 0.0007901548311549739, "dtype": "uint16"}}, {"name": "model_style/block_4_depthwise/depthwise_bn_offset", "shape": [192], "dtype": "float32", "quantization": {"min": -7.505443343336217, "scale": 0.000365263935338535, "dtype": "uint16"}}, {"name": "model_style/block_4_project/Conv2D_weights", "shape": [1, 1, 192, 32], "dtype": "float32", "quantization": {"min": -1.268037074452781, "scale": 4.3145187970492715e-05, "dtype": "uint16"}}, {"name": "model_style/block_4_project/Conv2D_bn_offset", "shape": [32], "dtype": "float32", "quantization": {"min": -7.430973571653068, "scale": 0.0002183076345266626, "dtype": "uint16"}}, {"name": "model_style/block_5_expand/Conv2D_weights", "shape": [1, 1, 32, 192], "dtype": "float32", "quantization": {"min": -0.18358925605626078, "scale": 5.22807996515152e-06, "dtype": "uint16"}}, {"name": "model_style/block_5_expand/Conv2D_bn_offset", "shape": [192], "dtype": "float32", "quantization": {"min": -1.7674404247861948, "scale": 7.773410849215792e-05, "dtype": "uint16"}}, {"name": "model_style/block_5_depthwise/depthwise_weights", "shape": [3, 3, 192, 1], "dtype": "float32", "quantization": {"min": -6.74355750032627, "scale": 0.00019281630640836822, "dtype": "uint16"}}, {"name": "model_style/block_5_depthwise/depthwise_bn_offset", "shape": [192], "dtype": "float32", "quantization": {"min": -15.943619045229337, "scale": 0.0003877622162421708, "dtype": "uint16"}}, {"name": "model_style/block_5_project/Conv2D_weights", "shape": [1, 1, 192, 32], "dtype": "float32", "quantization": {"min": -1.4628843945460817, "scale": 4.616087831075326e-05, "dtype": "uint16"}}, {"name": "model_style/block_13_depthwise/depthwise_weights", "shape": [3, 3, 576, 1], "dtype": "float32", "quantization": {"min": -1.6534295928808391, "scale": 0.00032923727456806833, "dtype": "uint16"}}, {"name": "model_style/block_5_project/Conv2D_bn_offset", "shape": [32], "dtype": "float32", "quantization": {"min": -8.092869397887577, "scale": 0.00018962181395739306, "dtype": "uint16"}}, {"name": "model_style/block_6_expand/Conv2D_weights", "shape": [1, 1, 32, 192], "dtype": "float32", "quantization": {"min": -0.16014977067724884, "scale": 5.6644067017029975e-06, "dtype": "uint16"}}, {"name": "model_style/block_6_expand/Conv2D_bn_offset", "shape": [192], "dtype": "float32", "quantization": {"min": -1.9890452610852472, "scale": 6.401201239292142e-05, "dtype": "uint16"}}, {"name": "model_style/block_13_depthwise/depthwise_bn_offset", "shape": [576], "dtype": "float32", "quantization": {"min": -2.877674629526916, "scale": 0.00012325144036007008, "dtype": "uint16"}}, {"name": "model_style/block_6_depthwise/depthwise_weights", "shape": [3, 3, 192, 1], "dtype": "float32", "quantization": {"min": -1.5961584710780148, "scale": 4.948254552742086e-05, "dtype": "uint16"}}, {"name": "model_style/block_6_depthwise/depthwise_bn_offset", "shape": [192], "dtype": "float32", "quantization": {"min": -3.577701577345712, "scale": 0.00018950694302376778, "dtype": "uint16"}}, {"name": "model_style/block_6_project/Conv2D_weights", "shape": [1, 1, 192, 64], "dtype": "float32", "quantization": {"min": -1.9241537505095851, "scale": 4.4461347840875874e-05, "dtype": "uint16"}}, {"name": "model_style/block_6_project/Conv2D_bn_offset", "shape": [64], "dtype": "float32", "quantization": {"min": -10.79392986459136, "scale": 0.0004057258256123651, "dtype": "uint16"}}, {"name": "model_style/block_7_expand/Conv2D_weights", "shape": [1, 1, 64, 384], "dtype": "float32", "quantization": {"min": -0.0938622182001918, "scale": 3.2594443240681946e-06, "dtype": "uint16"}}, {"name": "model_style/block_7_expand/Conv2D_bn_offset", "shape": [384], "dtype": "float32", "quantization": {"min": -1.7899468143881072, "scale": 9.599628951990278e-05, "dtype": "uint16"}}, {"name": "model_style/block_13_project/Conv2D_weights", "shape": [1, 1, 576, 160], "dtype": "float32", "quantization": {"min": -0.35074426779814677, "scale": 9.878728849405626e-06, "dtype": "uint16"}}, {"name": "model_style/block_7_depthwise/depthwise_weights", "shape": [3, 3, 384, 1], "dtype": "float32", "quantization": {"min": -10.388910326365066, "scale": 0.0002302200577575027, "dtype": "uint16"}}, {"name": "model_style/block_7_depthwise/depthwise_bn_offset", "shape": [384], "dtype": "float32", "quantization": {"min": -4.031061376360795, "scale": 0.00024579642538785336, "dtype": "uint16"}}, {"name": "model_style/block_7_project/Conv2D_weights", "shape": [1, 1, 384, 64], "dtype": "float32", "quantization": {"min": -0.5976938330627847, "scale": 3.1110443111741864e-05, "dtype": "uint16"}}, {"name": "model_style/block_7_project/Conv2D_bn_offset", "shape": [64], "dtype": "float32", "quantization": {"min": -7.375265097798185, "scale": 0.0001587170762201555, "dtype": "uint16"}}, {"name": "model_style/block_8_expand/Conv2D_weights", "shape": [1, 1, 64, 384], "dtype": "float32", "quantization": {"min": -0.12988014497363687, "scale": 3.5607014193891013e-06, "dtype": "uint16"}}, {"name": "model_style/block_13_project/Conv2D_bn_offset", "shape": [160], "dtype": "float32", "quantization": {"min": -7.167075634170034, "scale": 0.0001722523465239866, "dtype": "uint16"}}, {"name": "model_style/block_8_expand/Conv2D_bn_offset", "shape": [384], "dtype": "float32", "quantization": {"min": -1.5601921091474804, "scale": 5.3427577191544426e-05, "dtype": "uint16"}}, {"name": "model_style/block_8_depthwise/depthwise_weights", "shape": [3, 3, 384, 1], "dtype": "float32", "quantization": {"min": -9.21770408364358, "scale": 0.0003162922171239605, "dtype": "uint16"}}, {"name": "model_style/block_8_depthwise/depthwise_bn_offset", "shape": [384], "dtype": "float32", "quantization": {"min": -4.943393822550146, "scale": 0.00015664967590550894, "dtype": "uint16"}}, {"name": "model_style/block_8_project/Conv2D_weights", "shape": [1, 1, 384, 64], "dtype": "float32", "quantization": {"min": -0.6589597242842771, "scale": 2.371809107311223e-05, "dtype": "uint16"}}, {"name": "model_style/block_14_expand/Conv2D_weights", "shape": [1, 1, 160, 960], "dtype": "float32", "quantization": {"min": -0.17582092091294496, "scale": 5.6463252163828306e-06, "dtype": "uint16"}}, {"name": "model_style/block_8_project/Conv2D_bn_offset", "shape": [64], "dtype": "float32", "quantization": {"min": -1.9241469162611156, "scale": 8.193088849312819e-05, "dtype": "uint16"}}, {"name": "model_style/block_9_expand/Conv2D_weights", "shape": [1, 1, 64, 384], "dtype": "float32", "quantization": {"min": -0.10079555387053836, "scale": 3.059974313009665e-06, "dtype": "uint16"}}, {"name": "model_style/block_9_expand/Conv2D_bn_offset", "shape": [384], "dtype": "float32", "quantization": {"min": -1.3924566026045726, "scale": 4.81053203414832e-05, "dtype": "uint16"}}, {"name": "model_style/block_14_expand/Conv2D_bn_offset", "shape": [960], "dtype": "float32", "quantization": {"min": -1.9766504312822162, "scale": 6.733836721680916e-05, "dtype": "uint16"}}, {"name": "model_style/block_9_depthwise/depthwise_weights", "shape": [3, 3, 384, 1], "dtype": "float32", "quantization": {"min": -6.469466405210627, "scale": 0.00015782265820673858, "dtype": "uint16"}}, {"name": "model_style/block_9_depthwise/depthwise_bn_offset", "shape": [384], "dtype": "float32", "quantization": {"min": -5.700023270424583, "scale": 0.0001910643673255986, "dtype": "uint16"}}, {"name": "model_style/block_9_project/Conv2D_weights", "shape": [1, 1, 384, 64], "dtype": "float32", "quantization": {"min": -0.6378381823369256, "scale": 2.158870138219413e-05, "dtype": "uint16"}}, {"name": "model_style/block_9_project/Conv2D_bn_offset", "shape": [64], "dtype": "float32", "quantization": {"min": -3.517913061815586, "scale": 0.00011747522413062133, "dtype": "uint16"}}, {"name": "model_style/block_10_expand/Conv2D_weights", "shape": [1, 1, 64, 384], "dtype": "float32", "quantization": {"min": -0.14425943277607411, "scale": 4.95532539076924e-06, "dtype": "uint16"}}, {"name": "model_style/block_10_expand/Conv2D_bn_offset", "shape": [384], "dtype": "float32", "quantization": {"min": -2.201385871723932, "scale": 6.79565929407894e-05, "dtype": "uint16"}}, {"name": "model_style/block_14_depthwise/depthwise_weights", "shape": [3, 3, 960, 1], "dtype": "float32", "quantization": {"min": -46.44910032936353, "scale": 0.0013442466958778587, "dtype": "uint16"}}, {"name": "model_style/block_10_depthwise/depthwise_weights", "shape": [3, 3, 384, 1], "dtype": "float32", "quantization": {"min": -4.0721186758806684, "scale": 0.00012656157500794617, "dtype": "uint16"}}, {"name": "model_style/block_10_depthwise/depthwise_bn_offset", "shape": [384], "dtype": "float32", "quantization": {"min": -6.362075597350217, "scale": 0.00019945061124052347, "dtype": "uint16"}}, {"name": "model_style/block_10_project/Conv2D_weights", "shape": [1, 1, 384, 96], "dtype": "float32", "quantization": {"min": -0.6573482782787795, "scale": 2.3120828612387166e-05, "dtype": "uint16"}}, {"name": "model_style/block_10_project/Conv2D_bn_offset", "shape": [96], "dtype": "float32", "quantization": {"min": -5.418595502075872, "scale": 0.00017751336616137175, "dtype": "uint16"}}, {"name": "model_style/block_11_expand/Conv2D_weights", "shape": [1, 1, 96, 576], "dtype": "float32", "quantization": {"min": -0.27428657502252013, "scale": 6.3144383954721706e-06, "dtype": "uint16"}}, {"name": "model_style/block_14_depthwise/depthwise_bn_offset", "shape": [960], "dtype": "float32", "quantization": {"min": -13.029152181432842, "scale": 0.0002861474574799122, "dtype": "uint16"}}, {"name": "model_style/block_11_expand/Conv2D_bn_offset", "shape": [576], "dtype": "float32", "quantization": {"min": -1.6541535412027388, "scale": 6.95811862702536e-05, "dtype": "uint16"}}, {"name": "model_style/block_11_depthwise/depthwise_weights", "shape": [3, 3, 576, 1], "dtype": "float32", "quantization": {"min": -17.69731298749194, "scale": 0.0004437863731253308, "dtype": "uint16"}}, {"name": "model_style/block_11_depthwise/depthwise_bn_offset", "shape": [576], "dtype": "float32", "quantization": {"min": -5.419177597549694, "scale": 0.00021245844660484155, "dtype": "uint16"}}, {"name": "model_style/block_11_project/Conv2D_weights", "shape": [1, 1, 576, 96], "dtype": "float32", "quantization": {"min": -0.29836006528581593, "scale": 8.454281978006175e-06, "dtype": "uint16"}}, {"name": "model_style/block_11_project/Conv2D_bn_offset", "shape": [96], "dtype": "float32", "quantization": {"min": -1.5117930788428848, "scale": 5.564199774909403e-05, "dtype": "uint16"}}, {"name": "model_style/block_12_expand/Conv2D_weights", "shape": [1, 1, 96, 576], "dtype": "float32", "quantization": {"min": -0.1706208116329079, "scale": 5.0352902946114185e-06, "dtype": "uint16"}}, {"name": "model_style/block_14_project/Conv2D_weights", "shape": [1, 1, 960, 160], "dtype": "float32", "quantization": {"min": -0.6846784625954182, "scale": 1.7083648450407162e-05, "dtype": "uint16"}}, {"name": "model_style/block_12_expand/Conv2D_bn_offset", "shape": [576], "dtype": "float32", "quantization": {"min": -2.1828554292706337, "scale": 7.290766296829104e-05, "dtype": "uint16"}}]}]}